…
img: torch.Size([8127, 1, 256, 256]) label: (8127, 4) feat: (8127, 90) window: (8127, 4)
loading images ...
data/data_2014_label.csv
data/data_2014_feat.csv
data/data_2014_window_48.csv
img: torch.Size([8127, 1, 256, 256]) label: (8127, 4) feat: (8127, 90) window: (8127, 4)
Batch Sampling
==========================================================================================
Layer (type:depth-idx)                   Output Shape              Param #
==========================================================================================
FlareTransformer                         --                        --
├─CNNModel: 1-1                          [4, 128]                  --
│    └─Conv2d: 2-1                       [4, 16, 128, 128]         784
│    └─BatchNorm2d: 2-2                  [4, 16, 128, 128]         32
│    └─ReLU: 2-3                         [4, 16, 128, 128]         --
│    └─MaxPool2d: 2-4                    [4, 16, 64, 64]           --
│    └─Bottleneck: 2-5                   [4, 32, 64, 64]           --
│    │    └─Conv2d: 3-1                  [4, 8, 64, 64]            128
│    │    └─BatchNorm2d: 3-2             [4, 8, 64, 64]            16
│    │    └─ReLU: 3-3                    [4, 8, 64, 64]            --
│    │    └─Conv2d: 3-4                  [4, 8, 64, 64]            576
│    │    └─BatchNorm2d: 3-5             [4, 8, 64, 64]            16
│    │    └─ReLU: 3-6                    [4, 8, 64, 64]            --
│    │    └─Conv2d: 3-7                  [4, 32, 64, 64]           256
│    │    └─BatchNorm2d: 3-8             [4, 32, 64, 64]           64
│    │    └─Sequential: 3-9              [4, 32, 64, 64]           576
│    │    └─ReLU: 3-10                   [4, 32, 64, 64]           --
│    └─AdaptiveAvgPool2d: 2-6            [4, 32, 2, 2]             --
│    └─Flatten: 2-7                      [4, 128]                  --
├─CNNModel: 1-2                          [4, 128]                  (recursive)
│    └─Conv2d: 2-8                       [4, 16, 128, 128]         (recursive)
│    └─BatchNorm2d: 2-9                  [4, 16, 128, 128]         (recursive)
│    └─ReLU: 2-10                        [4, 16, 128, 128]         --
│    └─MaxPool2d: 2-11                   [4, 16, 64, 64]           --
│    └─Bottleneck: 2-12                  [4, 32, 64, 64]           (recursive)
│    │    └─Conv2d: 3-11                 [4, 8, 64, 64]            (recursive)
│    │    └─BatchNorm2d: 3-12            [4, 8, 64, 64]            (recursive)
│    │    └─ReLU: 3-13                   [4, 8, 64, 64]            --
│    │    └─Conv2d: 3-14                 [4, 8, 64, 64]            (recursive)
│    │    └─BatchNorm2d: 3-15            [4, 8, 64, 64]            (recursive)
│    │    └─ReLU: 3-16                   [4, 8, 64, 64]            --
│    │    └─Conv2d: 3-17                 [4, 32, 64, 64]           (recursive)
│    │    └─BatchNorm2d: 3-18            [4, 32, 64, 64]           (recursive)
│    │    └─Sequential: 3-19             [4, 32, 64, 64]           (recursive)
│    │    └─ReLU: 3-20                   [4, 32, 64, 64]           --
│    └─AdaptiveAvgPool2d: 2-13           [4, 32, 2, 2]             --
│    └─Flatten: 2-14                     [4, 128]                  --
├─CNNModel: 1-3                          [4, 128]                  (recursive)
│    └─Conv2d: 2-15                      [4, 16, 128, 128]         (recursive)
│    └─BatchNorm2d: 2-16                 [4, 16, 128, 128]         (recursive)
│    └─ReLU: 2-17                        [4, 16, 128, 128]         --
│    └─MaxPool2d: 2-18                   [4, 16, 64, 64]           --
│    └─Bottleneck: 2-19                  [4, 32, 64, 64]           (recursive)
│    │    └─Conv2d: 3-21                 [4, 8, 64, 64]            (recursive)
│    │    └─BatchNorm2d: 3-22            [4, 8, 64, 64]            (recursive)
│    │    └─ReLU: 3-23                   [4, 8, 64, 64]            --
│    │    └─Conv2d: 3-24                 [4, 8, 64, 64]            (recursive)
│    │    └─BatchNorm2d: 3-25            [4, 8, 64, 64]            (recursive)
│    │    └─ReLU: 3-26                   [4, 8, 64, 64]            --
│    │    └─Conv2d: 3-27                 [4, 32, 64, 64]           (recursive)
│    │    └─BatchNorm2d: 3-28            [4, 32, 64, 64]           (recursive)
│    │    └─Sequential: 3-29             [4, 32, 64, 64]           (recursive)
│    │    └─ReLU: 3-30                   [4, 32, 64, 64]           --
│    └─AdaptiveAvgPool2d: 2-20           [4, 32, 2, 2]             --
│    └─Flatten: 2-21                     [4, 128]                  --
├─CNNModel: 1-4                          [4, 128]                  (recursive)
│    └─Conv2d: 2-22                      [4, 16, 128, 128]         (recursive)
│    └─BatchNorm2d: 2-23                 [4, 16, 128, 128]         (recursive)
│    └─ReLU: 2-24                        [4, 16, 128, 128]         --
│    └─MaxPool2d: 2-25                   [4, 16, 64, 64]           --
│    └─Bottleneck: 2-26                  [4, 32, 64, 64]           (recursive)
│    │    └─Conv2d: 3-31                 [4, 8, 64, 64]            (recursive)
│    │    └─BatchNorm2d: 3-32            [4, 8, 64, 64]            (recursive)
│    │    └─ReLU: 3-33                   [4, 8, 64, 64]            --
│    │    └─Conv2d: 3-34                 [4, 8, 64, 64]            (recursive)
│    │    └─BatchNorm2d: 3-35            [4, 8, 64, 64]            (recursive)
│    │    └─ReLU: 3-36                   [4, 8, 64, 64]            --
│    │    └─Conv2d: 3-37                 [4, 32, 64, 64]           (recursive)
│    │    └─BatchNorm2d: 3-38            [4, 32, 64, 64]           (recursive)
│    │    └─Sequential: 3-39             [4, 32, 64, 64]           (recursive)
│    │    └─ReLU: 3-40                   [4, 32, 64, 64]           --
│    └─AdaptiveAvgPool2d: 2-27           [4, 32, 2, 2]             --
│    └─Flatten: 2-28                     [4, 128]                  --
├─CNNModel: 1-5                          [4, 128]                  (recursive)
│    └─Conv2d: 2-29                      [4, 16, 128, 128]         (recursive)
│    └─BatchNorm2d: 2-30                 [4, 16, 128, 128]         (recursive)
│    └─ReLU: 2-31                        [4, 16, 128, 128]         --
│    └─MaxPool2d: 2-32                   [4, 16, 64, 64]           --
│    └─Bottleneck: 2-33                  [4, 32, 64, 64]           (recursive)
│    │    └─Conv2d: 3-41                 [4, 8, 64, 64]            (recursive)
│    │    └─BatchNorm2d: 3-42            [4, 8, 64, 64]            (recursive)
│    │    └─ReLU: 3-43                   [4, 8, 64, 64]            --
│    │    └─Conv2d: 3-44                 [4, 8, 64, 64]            (recursive)
│    │    └─BatchNorm2d: 3-45            [4, 8, 64, 64]            (recursive)
│    │    └─ReLU: 3-46                   [4, 8, 64, 64]            --
│    │    └─Conv2d: 3-47                 [4, 32, 64, 64]           (recursive)
│    │    └─BatchNorm2d: 3-48            [4, 32, 64, 64]           (recursive)
│    │    └─Sequential: 3-49             [4, 32, 64, 64]           (recursive)
│    │    └─ReLU: 3-50                   [4, 32, 64, 64]           --
│    └─AdaptiveAvgPool2d: 2-34           [4, 32, 2, 2]             --
│    └─Flatten: 2-35                     [4, 128]                  --
├─CNNModel: 1-6                          [4, 128]                  (recursive)
│    └─Conv2d: 2-36                      [4, 16, 128, 128]         (recursive)
│    └─BatchNorm2d: 2-37                 [4, 16, 128, 128]         (recursive)
│    └─ReLU: 2-38                        [4, 16, 128, 128]         --
│    └─MaxPool2d: 2-39                   [4, 16, 64, 64]           --
│    └─Bottleneck: 2-40                  [4, 32, 64, 64]           (recursive)
│    │    └─Conv2d: 3-51                 [4, 8, 64, 64]            (recursive)
│    │    └─BatchNorm2d: 3-52            [4, 8, 64, 64]            (recursive)
│    │    └─ReLU: 3-53                   [4, 8, 64, 64]            --
│    │    └─Conv2d: 3-54                 [4, 8, 64, 64]            (recursive)
│    │    └─BatchNorm2d: 3-55            [4, 8, 64, 64]            (recursive)
│    │    └─ReLU: 3-56                   [4, 8, 64, 64]            --
│    │    └─Conv2d: 3-57                 [4, 32, 64, 64]           (recursive)
│    │    └─BatchNorm2d: 3-58            [4, 32, 64, 64]           (recursive)
│    │    └─Sequential: 3-59             [4, 32, 64, 64]           (recursive)
│    │    └─ReLU: 3-60                   [4, 32, 64, 64]           --
│    └─AdaptiveAvgPool2d: 2-41           [4, 32, 2, 2]             --
│    └─Flatten: 2-42                     [4, 128]                  --
├─CNNModel: 1-7                          [4, 128]                  (recursive)
│    └─Conv2d: 2-43                      [4, 16, 128, 128]         (recursive)
│    └─BatchNorm2d: 2-44                 [4, 16, 128, 128]         (recursive)
│    └─ReLU: 2-45                        [4, 16, 128, 128]         --
│    └─MaxPool2d: 2-46                   [4, 16, 64, 64]           --
│    └─Bottleneck: 2-47                  [4, 32, 64, 64]           (recursive)
│    │    └─Conv2d: 3-61                 [4, 8, 64, 64]            (recursive)
│    │    └─BatchNorm2d: 3-62            [4, 8, 64, 64]            (recursive)
│    │    └─ReLU: 3-63                   [4, 8, 64, 64]            --
│    │    └─Conv2d: 3-64                 [4, 8, 64, 64]            (recursive)
│    │    └─BatchNorm2d: 3-65            [4, 8, 64, 64]            (recursive)
│    │    └─ReLU: 3-66                   [4, 8, 64, 64]            --
│    │    └─Conv2d: 3-67                 [4, 32, 64, 64]           (recursive)
│    │    └─BatchNorm2d: 3-68            [4, 32, 64, 64]           (recursive)
│    │    └─Sequential: 3-69             [4, 32, 64, 64]           (recursive)
│    │    └─ReLU: 3-70                   [4, 32, 64, 64]           --
│    └─AdaptiveAvgPool2d: 2-48           [4, 32, 2, 2]             --
│    └─Flatten: 2-49                     [4, 128]                  --
├─CNNModel: 1-8                          [4, 128]                  (recursive)
│    └─Conv2d: 2-50                      [4, 16, 128, 128]         (recursive)
│    └─BatchNorm2d: 2-51                 [4, 16, 128, 128]         (recursive)
│    └─ReLU: 2-52                        [4, 16, 128, 128]         --
│    └─MaxPool2d: 2-53                   [4, 16, 64, 64]           --
│    └─Bottleneck: 2-54                  [4, 32, 64, 64]           (recursive)
│    │    └─Conv2d: 3-71                 [4, 8, 64, 64]            (recursive)
│    │    └─BatchNorm2d: 3-72            [4, 8, 64, 64]            (recursive)
│    │    └─ReLU: 3-73                   [4, 8, 64, 64]            --
│    │    └─Conv2d: 3-74                 [4, 8, 64, 64]            (recursive)
│    │    └─BatchNorm2d: 3-75            [4, 8, 64, 64]            (recursive)
│    │    └─ReLU: 3-76                   [4, 8, 64, 64]            --
│    │    └─Conv2d: 3-77                 [4, 32, 64, 64]           (recursive)
│    │    └─BatchNorm2d: 3-78            [4, 32, 64, 64]           (recursive)
│    │    └─Sequential: 3-79             [4, 32, 64, 64]           (recursive)
│    │    └─ReLU: 3-80                   [4, 32, 64, 64]           --
│    └─AdaptiveAvgPool2d: 2-55           [4, 32, 2, 2]             --
│    └─Flatten: 2-56                     [4, 128]                  --
├─CNNModel: 1-9                          [4, 128]                  (recursive)
│    └─Conv2d: 2-57                      [4, 16, 128, 128]         (recursive)
│    └─BatchNorm2d: 2-58                 [4, 16, 128, 128]         (recursive)
│    └─ReLU: 2-59                        [4, 16, 128, 128]         --
│    └─MaxPool2d: 2-60                   [4, 16, 64, 64]           --
│    └─Bottleneck: 2-61                  [4, 32, 64, 64]           (recursive)
│    │    └─Conv2d: 3-81                 [4, 8, 64, 64]            (recursive)
│    │    └─BatchNorm2d: 3-82            [4, 8, 64, 64]            (recursive)
│    │    └─ReLU: 3-83                   [4, 8, 64, 64]            --
│    │    └─Conv2d: 3-84                 [4, 8, 64, 64]            (recursive)
│    │    └─BatchNorm2d: 3-85            [4, 8, 64, 64]            (recursive)
│    │    └─ReLU: 3-86                   [4, 8, 64, 64]            --
│    │    └─Conv2d: 3-87                 [4, 32, 64, 64]           (recursive)
│    │    └─BatchNorm2d: 3-88            [4, 32, 64, 64]           (recursive)
│    │    └─Sequential: 3-89             [4, 32, 64, 64]           (recursive)
│    │    └─ReLU: 3-90                   [4, 32, 64, 64]           --
│    └─AdaptiveAvgPool2d: 2-62           [4, 32, 2, 2]             --
│    └─Flatten: 2-63                     [4, 128]                  --
├─CNNModel: 1-10                         [4, 128]                  (recursive)
│    └─Conv2d: 2-64                      [4, 16, 128, 128]         (recursive)
│    └─BatchNorm2d: 2-65                 [4, 16, 128, 128]         (recursive)
│    └─ReLU: 2-66                        [4, 16, 128, 128]         --
│    └─MaxPool2d: 2-67                   [4, 16, 64, 64]           --
│    └─Bottleneck: 2-68                  [4, 32, 64, 64]           (recursive)
│    │    └─Conv2d: 3-91                 [4, 8, 64, 64]            (recursive)
│    │    └─BatchNorm2d: 3-92            [4, 8, 64, 64]            (recursive)
│    │    └─ReLU: 3-93                   [4, 8, 64, 64]            --
│    │    └─Conv2d: 3-94                 [4, 8, 64, 64]            (recursive)
│    │    └─BatchNorm2d: 3-95            [4, 8, 64, 64]            (recursive)
│    │    └─ReLU: 3-96                   [4, 8, 64, 64]            --
│    │    └─Conv2d: 3-97                 [4, 32, 64, 64]           (recursive)
│    │    └─BatchNorm2d: 3-98            [4, 32, 64, 64]           (recursive)
│    │    └─Sequential: 3-99             [4, 32, 64, 64]           (recursive)
│    │    └─ReLU: 3-100                  [4, 32, 64, 64]           --
│    └─AdaptiveAvgPool2d: 2-69           [4, 32, 2, 2]             --
│    └─Flatten: 2-70                     [4, 128]                  --
├─CNNModel: 1-11                         [4, 128]                  (recursive)
│    └─Conv2d: 2-71                      [4, 16, 128, 128]         (recursive)
│    └─BatchNorm2d: 2-72                 [4, 16, 128, 128]         (recursive)
│    └─ReLU: 2-73                        [4, 16, 128, 128]         --
│    └─MaxPool2d: 2-74                   [4, 16, 64, 64]           --
│    └─Bottleneck: 2-75                  [4, 32, 64, 64]           (recursive)
│    │    └─Conv2d: 3-101                [4, 8, 64, 64]            (recursive)
│    │    └─BatchNorm2d: 3-102           [4, 8, 64, 64]            (recursive)
│    │    └─ReLU: 3-103                  [4, 8, 64, 64]            --
│    │    └─Conv2d: 3-104                [4, 8, 64, 64]            (recursive)
│    │    └─BatchNorm2d: 3-105           [4, 8, 64, 64]            (recursive)
│    │    └─ReLU: 3-106                  [4, 8, 64, 64]            --
│    │    └─Conv2d: 3-107                [4, 32, 64, 64]           (recursive)
│    │    └─BatchNorm2d: 3-108           [4, 32, 64, 64]           (recursive)
│    │    └─Sequential: 3-109            [4, 32, 64, 64]           (recursive)
│    │    └─ReLU: 3-110                  [4, 32, 64, 64]           --
│    └─AdaptiveAvgPool2d: 2-76           [4, 32, 2, 2]             --
│    └─Flatten: 2-77                     [4, 128]                  --
├─CNNModel: 1-12                         [4, 128]                  (recursive)
│    └─Conv2d: 2-78                      [4, 16, 128, 128]         (recursive)
│    └─BatchNorm2d: 2-79                 [4, 16, 128, 128]         (recursive)
│    └─ReLU: 2-80                        [4, 16, 128, 128]         --
│    └─MaxPool2d: 2-81                   [4, 16, 64, 64]           --
│    └─Bottleneck: 2-82                  [4, 32, 64, 64]           (recursive)
│    │    └─Conv2d: 3-111                [4, 8, 64, 64]            (recursive)
│    │    └─BatchNorm2d: 3-112           [4, 8, 64, 64]            (recursive)
│    │    └─ReLU: 3-113                  [4, 8, 64, 64]            --
│    │    └─Conv2d: 3-114                [4, 8, 64, 64]            (recursive)
│    │    └─BatchNorm2d: 3-115           [4, 8, 64, 64]            (recursive)
│    │    └─ReLU: 3-116                  [4, 8, 64, 64]            --
│    │    └─Conv2d: 3-117                [4, 32, 64, 64]           (recursive)
│    │    └─BatchNorm2d: 3-118           [4, 32, 64, 64]           (recursive)
│    │    └─Sequential: 3-119            [4, 32, 64, 64]           (recursive)
│    │    └─ReLU: 3-120                  [4, 32, 64, 64]           --
│    └─AdaptiveAvgPool2d: 2-83           [4, 32, 2, 2]             --
│    └─Flatten: 2-84                     [4, 128]                  --
├─CNNModel: 1-13                         [4, 128]                  (recursive)
│    └─Conv2d: 2-85                      [4, 16, 128, 128]         (recursive)
│    └─BatchNorm2d: 2-86                 [4, 16, 128, 128]         (recursive)
│    └─ReLU: 2-87                        [4, 16, 128, 128]         --
│    └─MaxPool2d: 2-88                   [4, 16, 64, 64]           --
│    └─Bottleneck: 2-89                  [4, 32, 64, 64]           (recursive)
│    │    └─Conv2d: 3-121                [4, 8, 64, 64]            (recursive)
│    │    └─BatchNorm2d: 3-122           [4, 8, 64, 64]            (recursive)
│    │    └─ReLU: 3-123                  [4, 8, 64, 64]            --
│    │    └─Conv2d: 3-124                [4, 8, 64, 64]            (recursive)
│    │    └─BatchNorm2d: 3-125           [4, 8, 64, 64]            (recursive)
│    │    └─ReLU: 3-126                  [4, 8, 64, 64]            --
│    │    └─Conv2d: 3-127                [4, 32, 64, 64]           (recursive)
│    │    └─BatchNorm2d: 3-128           [4, 32, 64, 64]           (recursive)
│    │    └─Sequential: 3-129            [4, 32, 64, 64]           (recursive)
│    │    └─ReLU: 3-130                  [4, 32, 64, 64]           --
│    └─AdaptiveAvgPool2d: 2-90           [4, 32, 2, 2]             --
│    └─Flatten: 2-91                     [4, 128]                  --
├─CNNModel: 1-14                         [4, 128]                  (recursive)
│    └─Conv2d: 2-92                      [4, 16, 128, 128]         (recursive)
│    └─BatchNorm2d: 2-93                 [4, 16, 128, 128]         (recursive)
│    └─ReLU: 2-94                        [4, 16, 128, 128]         --
│    └─MaxPool2d: 2-95                   [4, 16, 64, 64]           --
│    └─Bottleneck: 2-96                  [4, 32, 64, 64]           (recursive)
│    │    └─Conv2d: 3-131                [4, 8, 64, 64]            (recursive)
│    │    └─BatchNorm2d: 3-132           [4, 8, 64, 64]            (recursive)
│    │    └─ReLU: 3-133                  [4, 8, 64, 64]            --
│    │    └─Conv2d: 3-134                [4, 8, 64, 64]            (recursive)
│    │    └─BatchNorm2d: 3-135           [4, 8, 64, 64]            (recursive)
│    │    └─ReLU: 3-136                  [4, 8, 64, 64]            --
│    │    └─Conv2d: 3-137                [4, 32, 64, 64]           (recursive)
│    │    └─BatchNorm2d: 3-138           [4, 32, 64, 64]           (recursive)
│    │    └─Sequential: 3-139            [4, 32, 64, 64]           (recursive)
│    │    └─ReLU: 3-140                  [4, 32, 64, 64]           --
│    └─AdaptiveAvgPool2d: 2-97           [4, 32, 2, 2]             --
│    └─Flatten: 2-98                     [4, 128]                  --
├─CNNModel: 1-15                         [4, 128]                  (recursive)
│    └─Conv2d: 2-99                      [4, 16, 128, 128]         (recursive)
│    └─BatchNorm2d: 2-100                [4, 16, 128, 128]         (recursive)
│    └─ReLU: 2-101                       [4, 16, 128, 128]         --
│    └─MaxPool2d: 2-102                  [4, 16, 64, 64]           --
│    └─Bottleneck: 2-103                 [4, 32, 64, 64]           (recursive)
│    │    └─Conv2d: 3-141                [4, 8, 64, 64]            (recursive)
│    │    └─BatchNorm2d: 3-142           [4, 8, 64, 64]            (recursive)
│    │    └─ReLU: 3-143                  [4, 8, 64, 64]            --
│    │    └─Conv2d: 3-144                [4, 8, 64, 64]            (recursive)
│    │    └─BatchNorm2d: 3-145           [4, 8, 64, 64]            (recursive)
│    │    └─ReLU: 3-146                  [4, 8, 64, 64]            --
│    │    └─Conv2d: 3-147                [4, 32, 64, 64]           (recursive)
│    │    └─BatchNorm2d: 3-148           [4, 32, 64, 64]           (recursive)
│    │    └─Sequential: 3-149            [4, 32, 64, 64]           (recursive)
│    │    └─ReLU: 3-150                  [4, 32, 64, 64]           --
│    └─AdaptiveAvgPool2d: 2-104          [4, 32, 2, 2]             --
│    └─Flatten: 2-105                    [4, 128]                  --
├─CNNModel: 1-16                         [4, 128]                  (recursive)
│    └─Conv2d: 2-106                     [4, 16, 128, 128]         (recursive)
│    └─BatchNorm2d: 2-107                [4, 16, 128, 128]         (recursive)
│    └─ReLU: 2-108                       [4, 16, 128, 128]         --
│    └─MaxPool2d: 2-109                  [4, 16, 64, 64]           --
│    └─Bottleneck: 2-110                 [4, 32, 64, 64]           (recursive)
│    │    └─Conv2d: 3-151                [4, 8, 64, 64]            (recursive)
│    │    └─BatchNorm2d: 3-152           [4, 8, 64, 64]            (recursive)
│    │    └─ReLU: 3-153                  [4, 8, 64, 64]            --
│    │    └─Conv2d: 3-154                [4, 8, 64, 64]            (recursive)
│    │    └─BatchNorm2d: 3-155           [4, 8, 64, 64]            (recursive)
│    │    └─ReLU: 3-156                  [4, 8, 64, 64]            --
│    │    └─Conv2d: 3-157                [4, 32, 64, 64]           (recursive)
│    │    └─BatchNorm2d: 3-158           [4, 32, 64, 64]           (recursive)
│    │    └─Sequential: 3-159            [4, 32, 64, 64]           (recursive)
│    │    └─ReLU: 3-160                  [4, 32, 64, 64]           --
│    └─AdaptiveAvgPool2d: 2-111          [4, 32, 2, 2]             --
│    └─Flatten: 2-112                    [4, 128]                  --
├─CNNModel: 1-17                         [4, 128]                  (recursive)
│    └─Conv2d: 2-113                     [4, 16, 128, 128]         (recursive)
│    └─BatchNorm2d: 2-114                [4, 16, 128, 128]         (recursive)
│    └─ReLU: 2-115                       [4, 16, 128, 128]         --
│    └─MaxPool2d: 2-116                  [4, 16, 64, 64]           --
│    └─Bottleneck: 2-117                 [4, 32, 64, 64]           (recursive)
│    │    └─Conv2d: 3-161                [4, 8, 64, 64]            (recursive)
│    │    └─BatchNorm2d: 3-162           [4, 8, 64, 64]            (recursive)
│    │    └─ReLU: 3-163                  [4, 8, 64, 64]            --
│    │    └─Conv2d: 3-164                [4, 8, 64, 64]            (recursive)
│    │    └─BatchNorm2d: 3-165           [4, 8, 64, 64]            (recursive)
│    │    └─ReLU: 3-166                  [4, 8, 64, 64]            --
│    │    └─Conv2d: 3-167                [4, 32, 64, 64]           (recursive)
│    │    └─BatchNorm2d: 3-168           [4, 32, 64, 64]           (recursive)
│    │    └─Sequential: 3-169            [4, 32, 64, 64]           (recursive)
│    │    └─ReLU: 3-170                  [4, 32, 64, 64]           --
│    └─AdaptiveAvgPool2d: 2-118          [4, 32, 2, 2]             --
│    └─Flatten: 2-119                    [4, 128]                  --
├─CNNModel: 1-18                         [4, 128]                  (recursive)
│    └─Conv2d: 2-120                     [4, 16, 128, 128]         (recursive)
│    └─BatchNorm2d: 2-121                [4, 16, 128, 128]         (recursive)
│    └─ReLU: 2-122                       [4, 16, 128, 128]         --
│    └─MaxPool2d: 2-123                  [4, 16, 64, 64]           --
│    └─Bottleneck: 2-124                 [4, 32, 64, 64]           (recursive)
│    │    └─Conv2d: 3-171                [4, 8, 64, 64]            (recursive)
│    │    └─BatchNorm2d: 3-172           [4, 8, 64, 64]            (recursive)
│    │    └─ReLU: 3-173                  [4, 8, 64, 64]            --
│    │    └─Conv2d: 3-174                [4, 8, 64, 64]            (recursive)
│    │    └─BatchNorm2d: 3-175           [4, 8, 64, 64]            (recursive)
│    │    └─ReLU: 3-176                  [4, 8, 64, 64]            --
│    │    └─Conv2d: 3-177                [4, 32, 64, 64]           (recursive)
│    │    └─BatchNorm2d: 3-178           [4, 32, 64, 64]           (recursive)
│    │    └─Sequential: 3-179            [4, 32, 64, 64]           (recursive)
│    │    └─ReLU: 3-180                  [4, 32, 64, 64]           --
│    └─AdaptiveAvgPool2d: 2-125          [4, 32, 2, 2]             --
│    └─Flatten: 2-126                    [4, 128]                  --
├─CNNModel: 1-19                         [4, 128]                  (recursive)
│    └─Conv2d: 2-127                     [4, 16, 128, 128]         (recursive)
│    └─BatchNorm2d: 2-128                [4, 16, 128, 128]         (recursive)
│    └─ReLU: 2-129                       [4, 16, 128, 128]         --
│    └─MaxPool2d: 2-130                  [4, 16, 64, 64]           --
│    └─Bottleneck: 2-131                 [4, 32, 64, 64]           (recursive)
│    │    └─Conv2d: 3-181                [4, 8, 64, 64]            (recursive)
│    │    └─BatchNorm2d: 3-182           [4, 8, 64, 64]            (recursive)
│    │    └─ReLU: 3-183                  [4, 8, 64, 64]            --
│    │    └─Conv2d: 3-184                [4, 8, 64, 64]            (recursive)
│    │    └─BatchNorm2d: 3-185           [4, 8, 64, 64]            (recursive)
│    │    └─ReLU: 3-186                  [4, 8, 64, 64]            --
│    │    └─Conv2d: 3-187                [4, 32, 64, 64]           (recursive)
│    │    └─BatchNorm2d: 3-188           [4, 32, 64, 64]           (recursive)
│    │    └─Sequential: 3-189            [4, 32, 64, 64]           (recursive)
│    │    └─ReLU: 3-190                  [4, 32, 64, 64]           --
│    └─AdaptiveAvgPool2d: 2-132          [4, 32, 2, 2]             --
│    └─Flatten: 2-133                    [4, 128]                  --
├─CNNModel: 1-20                         [4, 128]                  (recursive)
│    └─Conv2d: 2-134                     [4, 16, 128, 128]         (recursive)
│    └─BatchNorm2d: 2-135                [4, 16, 128, 128]         (recursive)
│    └─ReLU: 2-136                       [4, 16, 128, 128]         --
│    └─MaxPool2d: 2-137                  [4, 16, 64, 64]           --
│    └─Bottleneck: 2-138                 [4, 32, 64, 64]           (recursive)
│    │    └─Conv2d: 3-191                [4, 8, 64, 64]            (recursive)
│    │    └─BatchNorm2d: 3-192           [4, 8, 64, 64]            (recursive)
│    │    └─ReLU: 3-193                  [4, 8, 64, 64]            --
│    │    └─Conv2d: 3-194                [4, 8, 64, 64]            (recursive)
│    │    └─BatchNorm2d: 3-195           [4, 8, 64, 64]            (recursive)
│    │    └─ReLU: 3-196                  [4, 8, 64, 64]            --
│    │    └─Conv2d: 3-197                [4, 32, 64, 64]           (recursive)
│    │    └─BatchNorm2d: 3-198           [4, 32, 64, 64]           (recursive)
│    │    └─Sequential: 3-199            [4, 32, 64, 64]           (recursive)
│    │    └─ReLU: 3-200                  [4, 32, 64, 64]           --
│    └─AdaptiveAvgPool2d: 2-139          [4, 32, 2, 2]             --
│    └─Flatten: 2-140                    [4, 128]                  --
├─CNNModel: 1-21                         [4, 128]                  (recursive)
│    └─Conv2d: 2-141                     [4, 16, 128, 128]         (recursive)
│    └─BatchNorm2d: 2-142                [4, 16, 128, 128]         (recursive)
│    └─ReLU: 2-143                       [4, 16, 128, 128]         --
│    └─MaxPool2d: 2-144                  [4, 16, 64, 64]           --
│    └─Bottleneck: 2-145                 [4, 32, 64, 64]           (recursive)
│    │    └─Conv2d: 3-201                [4, 8, 64, 64]            (recursive)
│    │    └─BatchNorm2d: 3-202           [4, 8, 64, 64]            (recursive)
│    │    └─ReLU: 3-203                  [4, 8, 64, 64]            --
│    │    └─Conv2d: 3-204                [4, 8, 64, 64]            (recursive)
│    │    └─BatchNorm2d: 3-205           [4, 8, 64, 64]            (recursive)
│    │    └─ReLU: 3-206                  [4, 8, 64, 64]            --
│    │    └─Conv2d: 3-207                [4, 32, 64, 64]           (recursive)
│    │    └─BatchNorm2d: 3-208           [4, 32, 64, 64]           (recursive)
│    │    └─Sequential: 3-209            [4, 32, 64, 64]           (recursive)
│    │    └─ReLU: 3-210                  [4, 32, 64, 64]           --
│    └─AdaptiveAvgPool2d: 2-146          [4, 32, 2, 2]             --
│    └─Flatten: 2-147                    [4, 128]                  --
├─CNNModel: 1-22                         [4, 128]                  (recursive)
│    └─Conv2d: 2-148                     [4, 16, 128, 128]         (recursive)
│    └─BatchNorm2d: 2-149                [4, 16, 128, 128]         (recursive)
│    └─ReLU: 2-150                       [4, 16, 128, 128]         --
│    └─MaxPool2d: 2-151                  [4, 16, 64, 64]           --
│    └─Bottleneck: 2-152                 [4, 32, 64, 64]           (recursive)
│    │    └─Conv2d: 3-211                [4, 8, 64, 64]            (recursive)
│    │    └─BatchNorm2d: 3-212           [4, 8, 64, 64]            (recursive)
│    │    └─ReLU: 3-213                  [4, 8, 64, 64]            --
│    │    └─Conv2d: 3-214                [4, 8, 64, 64]            (recursive)
│    │    └─BatchNorm2d: 3-215           [4, 8, 64, 64]            (recursive)
│    │    └─ReLU: 3-216                  [4, 8, 64, 64]            --
│    │    └─Conv2d: 3-217                [4, 32, 64, 64]           (recursive)
│    │    └─BatchNorm2d: 3-218           [4, 32, 64, 64]           (recursive)
│    │    └─Sequential: 3-219            [4, 32, 64, 64]           (recursive)
│    │    └─ReLU: 3-220                  [4, 32, 64, 64]           --
│    └─AdaptiveAvgPool2d: 2-153          [4, 32, 2, 2]             --
│    └─Flatten: 2-154                    [4, 128]                  --
├─CNNModel: 1-23                         [4, 128]                  (recursive)
│    └─Conv2d: 2-155                     [4, 16, 128, 128]         (recursive)
│    └─BatchNorm2d: 2-156                [4, 16, 128, 128]         (recursive)
│    └─ReLU: 2-157                       [4, 16, 128, 128]         --
│    └─MaxPool2d: 2-158                  [4, 16, 64, 64]           --
│    └─Bottleneck: 2-159                 [4, 32, 64, 64]           (recursive)
│    │    └─Conv2d: 3-221                [4, 8, 64, 64]            (recursive)
│    │    └─BatchNorm2d: 3-222           [4, 8, 64, 64]            (recursive)
│    │    └─ReLU: 3-223                  [4, 8, 64, 64]            --
│    │    └─Conv2d: 3-224                [4, 8, 64, 64]            (recursive)
│    │    └─BatchNorm2d: 3-225           [4, 8, 64, 64]            (recursive)
│    │    └─ReLU: 3-226                  [4, 8, 64, 64]            --
│    │    └─Conv2d: 3-227                [4, 32, 64, 64]           (recursive)
│    │    └─BatchNorm2d: 3-228           [4, 32, 64, 64]           (recursive)
│    │    └─Sequential: 3-229            [4, 32, 64, 64]           (recursive)
│    │    └─ReLU: 3-230                  [4, 32, 64, 64]           --
│    └─AdaptiveAvgPool2d: 2-160          [4, 32, 2, 2]             --
│    └─Flatten: 2-161                    [4, 128]                  --
├─CNNModel: 1-24                         [4, 128]                  (recursive)
│    └─Conv2d: 2-162                     [4, 16, 128, 128]         (recursive)
│    └─BatchNorm2d: 2-163                [4, 16, 128, 128]         (recursive)
│    └─ReLU: 2-164                       [4, 16, 128, 128]         --
│    └─MaxPool2d: 2-165                  [4, 16, 64, 64]           --
│    └─Bottleneck: 2-166                 [4, 32, 64, 64]           (recursive)
│    │    └─Conv2d: 3-231                [4, 8, 64, 64]            (recursive)
│    │    └─BatchNorm2d: 3-232           [4, 8, 64, 64]            (recursive)
│    │    └─ReLU: 3-233                  [4, 8, 64, 64]            --
│    │    └─Conv2d: 3-234                [4, 8, 64, 64]            (recursive)
│    │    └─BatchNorm2d: 3-235           [4, 8, 64, 64]            (recursive)
│    │    └─ReLU: 3-236                  [4, 8, 64, 64]            --
│    │    └─Conv2d: 3-237                [4, 32, 64, 64]           (recursive)
│    │    └─BatchNorm2d: 3-238           [4, 32, 64, 64]           (recursive)
│    │    └─Sequential: 3-239            [4, 32, 64, 64]           (recursive)
│    │    └─ReLU: 3-240                  [4, 32, 64, 64]           --
│    └─AdaptiveAvgPool2d: 2-167          [4, 32, 2, 2]             --
│    └─Flatten: 2-168                    [4, 128]                  --
├─CNNModel: 1-25                         [4, 128]                  (recursive)
│    └─Conv2d: 2-169                     [4, 16, 128, 128]         (recursive)
│    └─BatchNorm2d: 2-170                [4, 16, 128, 128]         (recursive)
│    └─ReLU: 2-171                       [4, 16, 128, 128]         --
│    └─MaxPool2d: 2-172                  [4, 16, 64, 64]           --
│    └─Bottleneck: 2-173                 [4, 32, 64, 64]           (recursive)
│    │    └─Conv2d: 3-241                [4, 8, 64, 64]            (recursive)
│    │    └─BatchNorm2d: 3-242           [4, 8, 64, 64]            (recursive)
│    │    └─ReLU: 3-243                  [4, 8, 64, 64]            --
│    │    └─Conv2d: 3-244                [4, 8, 64, 64]            (recursive)
│    │    └─BatchNorm2d: 3-245           [4, 8, 64, 64]            (recursive)
│    │    └─ReLU: 3-246                  [4, 8, 64, 64]            --
│    │    └─Conv2d: 3-247                [4, 32, 64, 64]           (recursive)
│    │    └─BatchNorm2d: 3-248           [4, 32, 64, 64]           (recursive)
│    │    └─Sequential: 3-249            [4, 32, 64, 64]           (recursive)
│    │    └─ReLU: 3-250                  [4, 32, 64, 64]           --
│    └─AdaptiveAvgPool2d: 2-174          [4, 32, 2, 2]             --
│    └─Flatten: 2-175                    [4, 128]                  --
├─CNNModel: 1-26                         [4, 128]                  (recursive)
│    └─Conv2d: 2-176                     [4, 16, 128, 128]         (recursive)
│    └─BatchNorm2d: 2-177                [4, 16, 128, 128]         (recursive)
│    └─ReLU: 2-178                       [4, 16, 128, 128]         --
│    └─MaxPool2d: 2-179                  [4, 16, 64, 64]           --
│    └─Bottleneck: 2-180                 [4, 32, 64, 64]           (recursive)
│    │    └─Conv2d: 3-251                [4, 8, 64, 64]            (recursive)
│    │    └─BatchNorm2d: 3-252           [4, 8, 64, 64]            (recursive)
│    │    └─ReLU: 3-253                  [4, 8, 64, 64]            --
│    │    └─Conv2d: 3-254                [4, 8, 64, 64]            (recursive)
│    │    └─BatchNorm2d: 3-255           [4, 8, 64, 64]            (recursive)
│    │    └─ReLU: 3-256                  [4, 8, 64, 64]            --
│    │    └─Conv2d: 3-257                [4, 32, 64, 64]           (recursive)
│    │    └─BatchNorm2d: 3-258           [4, 32, 64, 64]           (recursive)
│    │    └─Sequential: 3-259            [4, 32, 64, 64]           (recursive)
│    │    └─ReLU: 3-260                  [4, 32, 64, 64]           --
│    └─AdaptiveAvgPool2d: 2-181          [4, 32, 2, 2]             --
│    └─Flatten: 2-182                    [4, 128]                  --
├─CNNModel: 1-27                         [4, 128]                  (recursive)
│    └─Conv2d: 2-183                     [4, 16, 128, 128]         (recursive)
│    └─BatchNorm2d: 2-184                [4, 16, 128, 128]         (recursive)
│    └─ReLU: 2-185                       [4, 16, 128, 128]         --
│    └─MaxPool2d: 2-186                  [4, 16, 64, 64]           --
│    └─Bottleneck: 2-187                 [4, 32, 64, 64]           (recursive)
│    │    └─Conv2d: 3-261                [4, 8, 64, 64]            (recursive)
│    │    └─BatchNorm2d: 3-262           [4, 8, 64, 64]            (recursive)
│    │    └─ReLU: 3-263                  [4, 8, 64, 64]            --
│    │    └─Conv2d: 3-264                [4, 8, 64, 64]            (recursive)
│    │    └─BatchNorm2d: 3-265           [4, 8, 64, 64]            (recursive)
│    │    └─ReLU: 3-266                  [4, 8, 64, 64]            --
│    │    └─Conv2d: 3-267                [4, 32, 64, 64]           (recursive)
│    │    └─BatchNorm2d: 3-268           [4, 32, 64, 64]           (recursive)
│    │    └─Sequential: 3-269            [4, 32, 64, 64]           (recursive)
│    │    └─ReLU: 3-270                  [4, 32, 64, 64]           --
│    └─AdaptiveAvgPool2d: 2-188          [4, 32, 2, 2]             --
│    └─Flatten: 2-189                    [4, 128]                  --
├─CNNModel: 1-28                         [4, 128]                  (recursive)
│    └─Conv2d: 2-190                     [4, 16, 128, 128]         (recursive)
│    └─BatchNorm2d: 2-191                [4, 16, 128, 128]         (recursive)
│    └─ReLU: 2-192                       [4, 16, 128, 128]         --
│    └─MaxPool2d: 2-193                  [4, 16, 64, 64]           --
│    └─Bottleneck: 2-194                 [4, 32, 64, 64]           (recursive)
│    │    └─Conv2d: 3-271                [4, 8, 64, 64]            (recursive)
│    │    └─BatchNorm2d: 3-272           [4, 8, 64, 64]            (recursive)
│    │    └─ReLU: 3-273                  [4, 8, 64, 64]            --
│    │    └─Conv2d: 3-274                [4, 8, 64, 64]            (recursive)
│    │    └─BatchNorm2d: 3-275           [4, 8, 64, 64]            (recursive)
│    │    └─ReLU: 3-276                  [4, 8, 64, 64]            --
│    │    └─Conv2d: 3-277                [4, 32, 64, 64]           (recursive)
│    │    └─BatchNorm2d: 3-278           [4, 32, 64, 64]           (recursive)
│    │    └─Sequential: 3-279            [4, 32, 64, 64]           (recursive)
│    │    └─ReLU: 3-280                  [4, 32, 64, 64]           --
│    └─AdaptiveAvgPool2d: 2-195          [4, 32, 2, 2]             --
│    └─Flatten: 2-196                    [4, 128]                  --
├─CNNModel: 1-29                         [4, 128]                  (recursive)
│    └─Conv2d: 2-197                     [4, 16, 128, 128]         (recursive)
│    └─BatchNorm2d: 2-198                [4, 16, 128, 128]         (recursive)
│    └─ReLU: 2-199                       [4, 16, 128, 128]         --
│    └─MaxPool2d: 2-200                  [4, 16, 64, 64]           --
│    └─Bottleneck: 2-201                 [4, 32, 64, 64]           (recursive)
│    │    └─Conv2d: 3-281                [4, 8, 64, 64]            (recursive)
│    │    └─BatchNorm2d: 3-282           [4, 8, 64, 64]            (recursive)
│    │    └─ReLU: 3-283                  [4, 8, 64, 64]            --
│    │    └─Conv2d: 3-284                [4, 8, 64, 64]            (recursive)
│    │    └─BatchNorm2d: 3-285           [4, 8, 64, 64]            (recursive)
│    │    └─ReLU: 3-286                  [4, 8, 64, 64]            --
│    │    └─Conv2d: 3-287                [4, 32, 64, 64]           (recursive)
│    │    └─BatchNorm2d: 3-288           [4, 32, 64, 64]           (recursive)
│    │    └─Sequential: 3-289            [4, 32, 64, 64]           (recursive)
│    │    └─ReLU: 3-290                  [4, 32, 64, 64]           --
│    └─AdaptiveAvgPool2d: 2-202          [4, 32, 2, 2]             --
│    └─Flatten: 2-203                    [4, 128]                  --
├─CNNModel: 1-30                         [4, 128]                  (recursive)
│    └─Conv2d: 2-204                     [4, 16, 128, 128]         (recursive)
│    └─BatchNorm2d: 2-205                [4, 16, 128, 128]         (recursive)
│    └─ReLU: 2-206                       [4, 16, 128, 128]         --
│    └─MaxPool2d: 2-207                  [4, 16, 64, 64]           --
│    └─Bottleneck: 2-208                 [4, 32, 64, 64]           (recursive)
│    │    └─Conv2d: 3-291                [4, 8, 64, 64]            (recursive)
│    │    └─BatchNorm2d: 3-292           [4, 8, 64, 64]            (recursive)
│    │    └─ReLU: 3-293                  [4, 8, 64, 64]            --
│    │    └─Conv2d: 3-294                [4, 8, 64, 64]            (recursive)
│    │    └─BatchNorm2d: 3-295           [4, 8, 64, 64]            (recursive)
│    │    └─ReLU: 3-296                  [4, 8, 64, 64]            --
│    │    └─Conv2d: 3-297                [4, 32, 64, 64]           (recursive)
│    │    └─BatchNorm2d: 3-298           [4, 32, 64, 64]           (recursive)
│    │    └─Sequential: 3-299            [4, 32, 64, 64]           (recursive)
│    │    └─ReLU: 3-300                  [4, 32, 64, 64]           --
│    └─AdaptiveAvgPool2d: 2-209          [4, 32, 2, 2]             --
│    └─Flatten: 2-210                    [4, 128]                  --
├─CNNModel: 1-31                         [4, 128]                  (recursive)
│    └─Conv2d: 2-211                     [4, 16, 128, 128]         (recursive)
│    └─BatchNorm2d: 2-212                [4, 16, 128, 128]         (recursive)
│    └─ReLU: 2-213                       [4, 16, 128, 128]         --
│    └─MaxPool2d: 2-214                  [4, 16, 64, 64]           --
│    └─Bottleneck: 2-215                 [4, 32, 64, 64]           (recursive)
│    │    └─Conv2d: 3-301                [4, 8, 64, 64]            (recursive)
│    │    └─BatchNorm2d: 3-302           [4, 8, 64, 64]            (recursive)
│    │    └─ReLU: 3-303                  [4, 8, 64, 64]            --
│    │    └─Conv2d: 3-304                [4, 8, 64, 64]            (recursive)
│    │    └─BatchNorm2d: 3-305           [4, 8, 64, 64]            (recursive)
│    │    └─ReLU: 3-306                  [4, 8, 64, 64]            --
│    │    └─Conv2d: 3-307                [4, 32, 64, 64]           (recursive)
│    │    └─BatchNorm2d: 3-308           [4, 32, 64, 64]           (recursive)
│    │    └─Sequential: 3-309            [4, 32, 64, 64]           (recursive)
│    │    └─ReLU: 3-310                  [4, 32, 64, 64]           --
│    └─AdaptiveAvgPool2d: 2-216          [4, 32, 2, 2]             --
│    └─Flatten: 2-217                    [4, 128]                  --
├─CNNModel: 1-32                         [4, 128]                  (recursive)
│    └─Conv2d: 2-218                     [4, 16, 128, 128]         (recursive)
│    └─BatchNorm2d: 2-219                [4, 16, 128, 128]         (recursive)
│    └─ReLU: 2-220                       [4, 16, 128, 128]         --
│    └─MaxPool2d: 2-221                  [4, 16, 64, 64]           --
│    └─Bottleneck: 2-222                 [4, 32, 64, 64]           (recursive)
│    │    └─Conv2d: 3-311                [4, 8, 64, 64]            (recursive)
│    │    └─BatchNorm2d: 3-312           [4, 8, 64, 64]            (recursive)
│    │    └─ReLU: 3-313                  [4, 8, 64, 64]            --
│    │    └─Conv2d: 3-314                [4, 8, 64, 64]            (recursive)
│    │    └─BatchNorm2d: 3-315           [4, 8, 64, 64]            (recursive)
│    │    └─ReLU: 3-316                  [4, 8, 64, 64]            --
│    │    └─Conv2d: 3-317                [4, 32, 64, 64]           (recursive)
│    │    └─BatchNorm2d: 3-318           [4, 32, 64, 64]           (recursive)
│    │    └─Sequential: 3-319            [4, 32, 64, 64]           (recursive)
│    │    └─ReLU: 3-320                  [4, 32, 64, 64]           --
│    └─AdaptiveAvgPool2d: 2-223          [4, 32, 2, 2]             --
│    └─Flatten: 2-224                    [4, 128]                  --
├─CNNModel: 1-33                         [4, 128]                  (recursive)
│    └─Conv2d: 2-225                     [4, 16, 128, 128]         (recursive)
│    └─BatchNorm2d: 2-226                [4, 16, 128, 128]         (recursive)
│    └─ReLU: 2-227                       [4, 16, 128, 128]         --
│    └─MaxPool2d: 2-228                  [4, 16, 64, 64]           --
│    └─Bottleneck: 2-229                 [4, 32, 64, 64]           (recursive)
│    │    └─Conv2d: 3-321                [4, 8, 64, 64]            (recursive)
│    │    └─BatchNorm2d: 3-322           [4, 8, 64, 64]            (recursive)
│    │    └─ReLU: 3-323                  [4, 8, 64, 64]            --
│    │    └─Conv2d: 3-324                [4, 8, 64, 64]            (recursive)
│    │    └─BatchNorm2d: 3-325           [4, 8, 64, 64]            (recursive)
│    │    └─ReLU: 3-326                  [4, 8, 64, 64]            --
│    │    └─Conv2d: 3-327                [4, 32, 64, 64]           (recursive)
│    │    └─BatchNorm2d: 3-328           [4, 32, 64, 64]           (recursive)
│    │    └─Sequential: 3-329            [4, 32, 64, 64]           (recursive)
│    │    └─ReLU: 3-330                  [4, 32, 64, 64]           --
│    └─AdaptiveAvgPool2d: 2-230          [4, 32, 2, 2]             --
│    └─Flatten: 2-231                    [4, 128]                  --
├─CNNModel: 1-34                         [4, 128]                  (recursive)
│    └─Conv2d: 2-232                     [4, 16, 128, 128]         (recursive)
│    └─BatchNorm2d: 2-233                [4, 16, 128, 128]         (recursive)
│    └─ReLU: 2-234                       [4, 16, 128, 128]         --
│    └─MaxPool2d: 2-235                  [4, 16, 64, 64]           --
│    └─Bottleneck: 2-236                 [4, 32, 64, 64]           (recursive)
│    │    └─Conv2d: 3-331                [4, 8, 64, 64]            (recursive)
│    │    └─BatchNorm2d: 3-332           [4, 8, 64, 64]            (recursive)
│    │    └─ReLU: 3-333                  [4, 8, 64, 64]            --
│    │    └─Conv2d: 3-334                [4, 8, 64, 64]            (recursive)
│    │    └─BatchNorm2d: 3-335           [4, 8, 64, 64]            (recursive)
│    │    └─ReLU: 3-336                  [4, 8, 64, 64]            --
│    │    └─Conv2d: 3-337                [4, 32, 64, 64]           (recursive)
│    │    └─BatchNorm2d: 3-338           [4, 32, 64, 64]           (recursive)
│    │    └─Sequential: 3-339            [4, 32, 64, 64]           (recursive)
│    │    └─ReLU: 3-340                  [4, 32, 64, 64]           --
│    └─AdaptiveAvgPool2d: 2-237          [4, 32, 2, 2]             --
│    └─Flatten: 2-238                    [4, 128]                  --
├─CNNModel: 1-35                         [4, 128]                  (recursive)
│    └─Conv2d: 2-239                     [4, 16, 128, 128]         (recursive)
│    └─BatchNorm2d: 2-240                [4, 16, 128, 128]         (recursive)
│    └─ReLU: 2-241                       [4, 16, 128, 128]         --
│    └─MaxPool2d: 2-242                  [4, 16, 64, 64]           --
│    └─Bottleneck: 2-243                 [4, 32, 64, 64]           (recursive)
│    │    └─Conv2d: 3-341                [4, 8, 64, 64]            (recursive)
│    │    └─BatchNorm2d: 3-342           [4, 8, 64, 64]            (recursive)
│    │    └─ReLU: 3-343                  [4, 8, 64, 64]            --
│    │    └─Conv2d: 3-344                [4, 8, 64, 64]            (recursive)
│    │    └─BatchNorm2d: 3-345           [4, 8, 64, 64]            (recursive)
│    │    └─ReLU: 3-346                  [4, 8, 64, 64]            --
│    │    └─Conv2d: 3-347                [4, 32, 64, 64]           (recursive)
│    │    └─BatchNorm2d: 3-348           [4, 32, 64, 64]           (recursive)
│    │    └─Sequential: 3-349            [4, 32, 64, 64]           (recursive)
│    │    └─ReLU: 3-350                  [4, 32, 64, 64]           --
│    └─AdaptiveAvgPool2d: 2-244          [4, 32, 2, 2]             --
│    └─Flatten: 2-245                    [4, 128]                  --
├─CNNModel: 1-36                         [4, 128]                  (recursive)
│    └─Conv2d: 2-246                     [4, 16, 128, 128]         (recursive)
│    └─BatchNorm2d: 2-247                [4, 16, 128, 128]         (recursive)
│    └─ReLU: 2-248                       [4, 16, 128, 128]         --
│    └─MaxPool2d: 2-249                  [4, 16, 64, 64]           --
│    └─Bottleneck: 2-250                 [4, 32, 64, 64]           (recursive)
│    │    └─Conv2d: 3-351                [4, 8, 64, 64]            (recursive)
│    │    └─BatchNorm2d: 3-352           [4, 8, 64, 64]            (recursive)
│    │    └─ReLU: 3-353                  [4, 8, 64, 64]            --
│    │    └─Conv2d: 3-354                [4, 8, 64, 64]            (recursive)
│    │    └─BatchNorm2d: 3-355           [4, 8, 64, 64]            (recursive)
│    │    └─ReLU: 3-356                  [4, 8, 64, 64]            --
│    │    └─Conv2d: 3-357                [4, 32, 64, 64]           (recursive)
│    │    └─BatchNorm2d: 3-358           [4, 32, 64, 64]           (recursive)
│    │    └─Sequential: 3-359            [4, 32, 64, 64]           (recursive)
│    │    └─ReLU: 3-360                  [4, 32, 64, 64]           --
│    └─AdaptiveAvgPool2d: 2-251          [4, 32, 2, 2]             --
│    └─Flatten: 2-252                    [4, 128]                  --
├─CNNModel: 1-37                         [4, 128]                  (recursive)
│    └─Conv2d: 2-253                     [4, 16, 128, 128]         (recursive)
│    └─BatchNorm2d: 2-254                [4, 16, 128, 128]         (recursive)
│    └─ReLU: 2-255                       [4, 16, 128, 128]         --
│    └─MaxPool2d: 2-256                  [4, 16, 64, 64]           --
│    └─Bottleneck: 2-257                 [4, 32, 64, 64]           (recursive)
│    │    └─Conv2d: 3-361                [4, 8, 64, 64]            (recursive)
│    │    └─BatchNorm2d: 3-362           [4, 8, 64, 64]            (recursive)
│    │    └─ReLU: 3-363                  [4, 8, 64, 64]            --
│    │    └─Conv2d: 3-364                [4, 8, 64, 64]            (recursive)
│    │    └─BatchNorm2d: 3-365           [4, 8, 64, 64]            (recursive)
│    │    └─ReLU: 3-366                  [4, 8, 64, 64]            --
│    │    └─Conv2d: 3-367                [4, 32, 64, 64]           (recursive)
│    │    └─BatchNorm2d: 3-368           [4, 32, 64, 64]           (recursive)
│    │    └─Sequential: 3-369            [4, 32, 64, 64]           (recursive)
│    │    └─ReLU: 3-370                  [4, 32, 64, 64]           --
│    └─AdaptiveAvgPool2d: 2-258          [4, 32, 2, 2]             --
│    └─Flatten: 2-259                    [4, 128]                  --
├─CNNModel: 1-38                         [4, 128]                  (recursive)
│    └─Conv2d: 2-260                     [4, 16, 128, 128]         (recursive)
│    └─BatchNorm2d: 2-261                [4, 16, 128, 128]         (recursive)
│    └─ReLU: 2-262                       [4, 16, 128, 128]         --
│    └─MaxPool2d: 2-263                  [4, 16, 64, 64]           --
│    └─Bottleneck: 2-264                 [4, 32, 64, 64]           (recursive)
│    │    └─Conv2d: 3-371                [4, 8, 64, 64]            (recursive)
│    │    └─BatchNorm2d: 3-372           [4, 8, 64, 64]            (recursive)
│    │    └─ReLU: 3-373                  [4, 8, 64, 64]            --
│    │    └─Conv2d: 3-374                [4, 8, 64, 64]            (recursive)
│    │    └─BatchNorm2d: 3-375           [4, 8, 64, 64]            (recursive)
│    │    └─ReLU: 3-376                  [4, 8, 64, 64]            --
│    │    └─Conv2d: 3-377                [4, 32, 64, 64]           (recursive)
│    │    └─BatchNorm2d: 3-378           [4, 32, 64, 64]           (recursive)
│    │    └─Sequential: 3-379            [4, 32, 64, 64]           (recursive)
│    │    └─ReLU: 3-380                  [4, 32, 64, 64]           --
│    └─AdaptiveAvgPool2d: 2-265          [4, 32, 2, 2]             --
│    └─Flatten: 2-266                    [4, 128]                  --
├─CNNModel: 1-39                         [4, 128]                  (recursive)
│    └─Conv2d: 2-267                     [4, 16, 128, 128]         (recursive)
│    └─BatchNorm2d: 2-268                [4, 16, 128, 128]         (recursive)
│    └─ReLU: 2-269                       [4, 16, 128, 128]         --
│    └─MaxPool2d: 2-270                  [4, 16, 64, 64]           --
│    └─Bottleneck: 2-271                 [4, 32, 64, 64]           (recursive)
│    │    └─Conv2d: 3-381                [4, 8, 64, 64]            (recursive)
│    │    └─BatchNorm2d: 3-382           [4, 8, 64, 64]            (recursive)
│    │    └─ReLU: 3-383                  [4, 8, 64, 64]            --
│    │    └─Conv2d: 3-384                [4, 8, 64, 64]            (recursive)
│    │    └─BatchNorm2d: 3-385           [4, 8, 64, 64]            (recursive)
│    │    └─ReLU: 3-386                  [4, 8, 64, 64]            --
│    │    └─Conv2d: 3-387                [4, 32, 64, 64]           (recursive)
│    │    └─BatchNorm2d: 3-388           [4, 32, 64, 64]           (recursive)
│    │    └─Sequential: 3-389            [4, 32, 64, 64]           (recursive)
│    │    └─ReLU: 3-390                  [4, 32, 64, 64]           --
│    └─AdaptiveAvgPool2d: 2-272          [4, 32, 2, 2]             --
│    └─Flatten: 2-273                    [4, 128]                  --
├─CNNModel: 1-40                         [4, 128]                  (recursive)
│    └─Conv2d: 2-274                     [4, 16, 128, 128]         (recursive)
│    └─BatchNorm2d: 2-275                [4, 16, 128, 128]         (recursive)
│    └─ReLU: 2-276                       [4, 16, 128, 128]         --
│    └─MaxPool2d: 2-277                  [4, 16, 64, 64]           --
│    └─Bottleneck: 2-278                 [4, 32, 64, 64]           (recursive)
│    │    └─Conv2d: 3-391                [4, 8, 64, 64]            (recursive)
│    │    └─BatchNorm2d: 3-392           [4, 8, 64, 64]            (recursive)
│    │    └─ReLU: 3-393                  [4, 8, 64, 64]            --
│    │    └─Conv2d: 3-394                [4, 8, 64, 64]            (recursive)
│    │    └─BatchNorm2d: 3-395           [4, 8, 64, 64]            (recursive)
│    │    └─ReLU: 3-396                  [4, 8, 64, 64]            --
│    │    └─Conv2d: 3-397                [4, 32, 64, 64]           (recursive)
│    │    └─BatchNorm2d: 3-398           [4, 32, 64, 64]           (recursive)
│    │    └─Sequential: 3-399            [4, 32, 64, 64]           (recursive)
│    │    └─ReLU: 3-400                  [4, 32, 64, 64]           --
│    └─AdaptiveAvgPool2d: 2-279          [4, 32, 2, 2]             --
│    └─Flatten: 2-280                    [4, 128]                  --
├─CNNModel: 1-41                         [4, 128]                  (recursive)
│    └─Conv2d: 2-281                     [4, 16, 128, 128]         (recursive)
│    └─BatchNorm2d: 2-282                [4, 16, 128, 128]         (recursive)
│    └─ReLU: 2-283                       [4, 16, 128, 128]         --
│    └─MaxPool2d: 2-284                  [4, 16, 64, 64]           --
│    └─Bottleneck: 2-285                 [4, 32, 64, 64]           (recursive)
│    │    └─Conv2d: 3-401                [4, 8, 64, 64]            (recursive)
│    │    └─BatchNorm2d: 3-402           [4, 8, 64, 64]            (recursive)
│    │    └─ReLU: 3-403                  [4, 8, 64, 64]            --
│    │    └─Conv2d: 3-404                [4, 8, 64, 64]            (recursive)
│    │    └─BatchNorm2d: 3-405           [4, 8, 64, 64]            (recursive)
│    │    └─ReLU: 3-406                  [4, 8, 64, 64]            --
│    │    └─Conv2d: 3-407                [4, 32, 64, 64]           (recursive)
│    │    └─BatchNorm2d: 3-408           [4, 32, 64, 64]           (recursive)
│    │    └─Sequential: 3-409            [4, 32, 64, 64]           (recursive)
│    │    └─ReLU: 3-410                  [4, 32, 64, 64]           --
│    └─AdaptiveAvgPool2d: 2-286          [4, 32, 2, 2]             --
│    └─Flatten: 2-287                    [4, 128]                  --
├─CNNModel: 1-42                         [4, 128]                  (recursive)
│    └─Conv2d: 2-288                     [4, 16, 128, 128]         (recursive)
│    └─BatchNorm2d: 2-289                [4, 16, 128, 128]         (recursive)
│    └─ReLU: 2-290                       [4, 16, 128, 128]         --
│    └─MaxPool2d: 2-291                  [4, 16, 64, 64]           --
│    └─Bottleneck: 2-292                 [4, 32, 64, 64]           (recursive)
│    │    └─Conv2d: 3-411                [4, 8, 64, 64]            (recursive)
│    │    └─BatchNorm2d: 3-412           [4, 8, 64, 64]            (recursive)
│    │    └─ReLU: 3-413                  [4, 8, 64, 64]            --
│    │    └─Conv2d: 3-414                [4, 8, 64, 64]            (recursive)
│    │    └─BatchNorm2d: 3-415           [4, 8, 64, 64]            (recursive)
│    │    └─ReLU: 3-416                  [4, 8, 64, 64]            --
│    │    └─Conv2d: 3-417                [4, 32, 64, 64]           (recursive)
│    │    └─BatchNorm2d: 3-418           [4, 32, 64, 64]           (recursive)
│    │    └─Sequential: 3-419            [4, 32, 64, 64]           (recursive)
│    │    └─ReLU: 3-420                  [4, 32, 64, 64]           --
│    └─AdaptiveAvgPool2d: 2-293          [4, 32, 2, 2]             --
│    └─Flatten: 2-294                    [4, 128]                  --
├─CNNModel: 1-43                         [4, 128]                  (recursive)
│    └─Conv2d: 2-295                     [4, 16, 128, 128]         (recursive)
│    └─BatchNorm2d: 2-296                [4, 16, 128, 128]         (recursive)
│    └─ReLU: 2-297                       [4, 16, 128, 128]         --
│    └─MaxPool2d: 2-298                  [4, 16, 64, 64]           --
│    └─Bottleneck: 2-299                 [4, 32, 64, 64]           (recursive)
│    │    └─Conv2d: 3-421                [4, 8, 64, 64]            (recursive)
│    │    └─BatchNorm2d: 3-422           [4, 8, 64, 64]            (recursive)
│    │    └─ReLU: 3-423                  [4, 8, 64, 64]            --
│    │    └─Conv2d: 3-424                [4, 8, 64, 64]            (recursive)
│    │    └─BatchNorm2d: 3-425           [4, 8, 64, 64]            (recursive)
│    │    └─ReLU: 3-426                  [4, 8, 64, 64]            --
│    │    └─Conv2d: 3-427                [4, 32, 64, 64]           (recursive)
│    │    └─BatchNorm2d: 3-428           [4, 32, 64, 64]           (recursive)
│    │    └─Sequential: 3-429            [4, 32, 64, 64]           (recursive)
│    │    └─ReLU: 3-430                  [4, 32, 64, 64]           --
│    └─AdaptiveAvgPool2d: 2-300          [4, 32, 2, 2]             --
│    └─Flatten: 2-301                    [4, 128]                  --
├─CNNModel: 1-44                         [4, 128]                  (recursive)
│    └─Conv2d: 2-302                     [4, 16, 128, 128]         (recursive)
│    └─BatchNorm2d: 2-303                [4, 16, 128, 128]         (recursive)
│    └─ReLU: 2-304                       [4, 16, 128, 128]         --
│    └─MaxPool2d: 2-305                  [4, 16, 64, 64]           --
│    └─Bottleneck: 2-306                 [4, 32, 64, 64]           (recursive)
│    │    └─Conv2d: 3-431                [4, 8, 64, 64]            (recursive)
│    │    └─BatchNorm2d: 3-432           [4, 8, 64, 64]            (recursive)
│    │    └─ReLU: 3-433                  [4, 8, 64, 64]            --
│    │    └─Conv2d: 3-434                [4, 8, 64, 64]            (recursive)
│    │    └─BatchNorm2d: 3-435           [4, 8, 64, 64]            (recursive)
│    │    └─ReLU: 3-436                  [4, 8, 64, 64]            --
│    │    └─Conv2d: 3-437                [4, 32, 64, 64]           (recursive)
│    │    └─BatchNorm2d: 3-438           [4, 32, 64, 64]           (recursive)
│    │    └─Sequential: 3-439            [4, 32, 64, 64]           (recursive)
│    │    └─ReLU: 3-440                  [4, 32, 64, 64]           --
│    └─AdaptiveAvgPool2d: 2-307          [4, 32, 2, 2]             --
│    └─Flatten: 2-308                    [4, 128]                  --
├─CNNModel: 1-45                         [4, 128]                  (recursive)
│    └─Conv2d: 2-309                     [4, 16, 128, 128]         (recursive)
│    └─BatchNorm2d: 2-310                [4, 16, 128, 128]         (recursive)
│    └─ReLU: 2-311                       [4, 16, 128, 128]         --
│    └─MaxPool2d: 2-312                  [4, 16, 64, 64]           --
│    └─Bottleneck: 2-313                 [4, 32, 64, 64]           (recursive)
│    │    └─Conv2d: 3-441                [4, 8, 64, 64]            (recursive)
│    │    └─BatchNorm2d: 3-442           [4, 8, 64, 64]            (recursive)
│    │    └─ReLU: 3-443                  [4, 8, 64, 64]            --
│    │    └─Conv2d: 3-444                [4, 8, 64, 64]            (recursive)
│    │    └─BatchNorm2d: 3-445           [4, 8, 64, 64]            (recursive)
│    │    └─ReLU: 3-446                  [4, 8, 64, 64]            --
│    │    └─Conv2d: 3-447                [4, 32, 64, 64]           (recursive)
│    │    └─BatchNorm2d: 3-448           [4, 32, 64, 64]           (recursive)
│    │    └─Sequential: 3-449            [4, 32, 64, 64]           (recursive)
│    │    └─ReLU: 3-450                  [4, 32, 64, 64]           --
│    └─AdaptiveAvgPool2d: 2-314          [4, 32, 2, 2]             --
│    └─Flatten: 2-315                    [4, 128]                  --
├─CNNModel: 1-46                         [4, 128]                  (recursive)
│    └─Conv2d: 2-316                     [4, 16, 128, 128]         (recursive)
│    └─BatchNorm2d: 2-317                [4, 16, 128, 128]         (recursive)
│    └─ReLU: 2-318                       [4, 16, 128, 128]         --
│    └─MaxPool2d: 2-319                  [4, 16, 64, 64]           --
│    └─Bottleneck: 2-320                 [4, 32, 64, 64]           (recursive)
│    │    └─Conv2d: 3-451                [4, 8, 64, 64]            (recursive)
│    │    └─BatchNorm2d: 3-452           [4, 8, 64, 64]            (recursive)
│    │    └─ReLU: 3-453                  [4, 8, 64, 64]            --
│    │    └─Conv2d: 3-454                [4, 8, 64, 64]            (recursive)
│    │    └─BatchNorm2d: 3-455           [4, 8, 64, 64]            (recursive)
│    │    └─ReLU: 3-456                  [4, 8, 64, 64]            --
│    │    └─Conv2d: 3-457                [4, 32, 64, 64]           (recursive)
│    │    └─BatchNorm2d: 3-458           [4, 32, 64, 64]           (recursive)
│    │    └─Sequential: 3-459            [4, 32, 64, 64]           (recursive)
│    │    └─ReLU: 3-460                  [4, 32, 64, 64]           --
│    └─AdaptiveAvgPool2d: 2-321          [4, 32, 2, 2]             --
│    └─Flatten: 2-322                    [4, 128]                  --
├─CNNModel: 1-47                         [4, 128]                  (recursive)
│    └─Conv2d: 2-323                     [4, 16, 128, 128]         (recursive)
│    └─BatchNorm2d: 2-324                [4, 16, 128, 128]         (recursive)
│    └─ReLU: 2-325                       [4, 16, 128, 128]         --
│    └─MaxPool2d: 2-326                  [4, 16, 64, 64]           --
│    └─Bottleneck: 2-327                 [4, 32, 64, 64]           (recursive)
│    │    └─Conv2d: 3-461                [4, 8, 64, 64]            (recursive)
│    │    └─BatchNorm2d: 3-462           [4, 8, 64, 64]            (recursive)
│    │    └─ReLU: 3-463                  [4, 8, 64, 64]            --
│    │    └─Conv2d: 3-464                [4, 8, 64, 64]            (recursive)
│    │    └─BatchNorm2d: 3-465           [4, 8, 64, 64]            (recursive)
│    │    └─ReLU: 3-466                  [4, 8, 64, 64]            --
│    │    └─Conv2d: 3-467                [4, 32, 64, 64]           (recursive)
│    │    └─BatchNorm2d: 3-468           [4, 32, 64, 64]           (recursive)
│    │    └─Sequential: 3-469            [4, 32, 64, 64]           (recursive)
│    │    └─ReLU: 3-470                  [4, 32, 64, 64]           --
│    └─AdaptiveAvgPool2d: 2-328          [4, 32, 2, 2]             --
│    └─Flatten: 2-329                    [4, 128]                  --
├─CNNModel: 1-48                         [4, 128]                  (recursive)
│    └─Conv2d: 2-330                     [4, 16, 128, 128]         (recursive)
│    └─BatchNorm2d: 2-331                [4, 16, 128, 128]         (recursive)
│    └─ReLU: 2-332                       [4, 16, 128, 128]         --
│    └─MaxPool2d: 2-333                  [4, 16, 64, 64]           --
│    └─Bottleneck: 2-334                 [4, 32, 64, 64]           (recursive)
│    │    └─Conv2d: 3-471                [4, 8, 64, 64]            (recursive)
│    │    └─BatchNorm2d: 3-472           [4, 8, 64, 64]            (recursive)
│    │    └─ReLU: 3-473                  [4, 8, 64, 64]            --
│    │    └─Conv2d: 3-474                [4, 8, 64, 64]            (recursive)
│    │    └─BatchNorm2d: 3-475           [4, 8, 64, 64]            (recursive)
│    │    └─ReLU: 3-476                  [4, 8, 64, 64]            --
│    │    └─Conv2d: 3-477                [4, 32, 64, 64]           (recursive)
│    │    └─BatchNorm2d: 3-478           [4, 32, 64, 64]           (recursive)
│    │    └─Sequential: 3-479            [4, 32, 64, 64]           (recursive)
│    │    └─ReLU: 3-480                  [4, 32, 64, 64]           --
│    └─AdaptiveAvgPool2d: 2-335          [4, 32, 2, 2]             --
│    └─Flatten: 2-336                    [4, 128]                  --
├─CNNModel: 1-49                         [4, 128]                  (recursive)
│    └─Conv2d: 2-337                     [4, 16, 128, 128]         (recursive)
│    └─BatchNorm2d: 2-338                [4, 16, 128, 128]         (recursive)
│    └─ReLU: 2-339                       [4, 16, 128, 128]         --
│    └─MaxPool2d: 2-340                  [4, 16, 64, 64]           --
│    └─Bottleneck: 2-341                 [4, 32, 64, 64]           (recursive)
│    │    └─Conv2d: 3-481                [4, 8, 64, 64]            (recursive)
│    │    └─BatchNorm2d: 3-482           [4, 8, 64, 64]            (recursive)
│    │    └─ReLU: 3-483                  [4, 8, 64, 64]            --
│    │    └─Conv2d: 3-484                [4, 8, 64, 64]            (recursive)
│    │    └─BatchNorm2d: 3-485           [4, 8, 64, 64]            (recursive)
│    │    └─ReLU: 3-486                  [4, 8, 64, 64]            --
│    │    └─Conv2d: 3-487                [4, 32, 64, 64]           (recursive)
│    │    └─BatchNorm2d: 3-488           [4, 32, 64, 64]           (recursive)
│    │    └─Sequential: 3-489            [4, 32, 64, 64]           (recursive)
│    │    └─ReLU: 3-490                  [4, 32, 64, 64]           --
│    └─AdaptiveAvgPool2d: 2-342          [4, 32, 2, 2]             --
│    └─Flatten: 2-343                    [4, 128]                  --
├─CNNModel: 1-50                         [4, 128]                  (recursive)
│    └─Conv2d: 2-344                     [4, 16, 128, 128]         (recursive)
│    └─BatchNorm2d: 2-345                [4, 16, 128, 128]         (recursive)
│    └─ReLU: 2-346                       [4, 16, 128, 128]         --
│    └─MaxPool2d: 2-347                  [4, 16, 64, 64]           --
│    └─Bottleneck: 2-348                 [4, 32, 64, 64]           (recursive)
│    │    └─Conv2d: 3-491                [4, 8, 64, 64]            (recursive)
│    │    └─BatchNorm2d: 3-492           [4, 8, 64, 64]            (recursive)
│    │    └─ReLU: 3-493                  [4, 8, 64, 64]            --
│    │    └─Conv2d: 3-494                [4, 8, 64, 64]            (recursive)
│    │    └─BatchNorm2d: 3-495           [4, 8, 64, 64]            (recursive)
│    │    └─ReLU: 3-496                  [4, 8, 64, 64]            --
│    │    └─Conv2d: 3-497                [4, 32, 64, 64]           (recursive)
│    │    └─BatchNorm2d: 3-498           [4, 32, 64, 64]           (recursive)
│    │    └─Sequential: 3-499            [4, 32, 64, 64]           (recursive)
│    │    └─ReLU: 3-500                  [4, 32, 64, 64]           --
│    └─AdaptiveAvgPool2d: 2-349          [4, 32, 2, 2]             --
│    └─Flatten: 2-350                    [4, 128]                  --
├─CNNModel: 1-51                         [4, 128]                  (recursive)
│    └─Conv2d: 2-351                     [4, 16, 128, 128]         (recursive)
│    └─BatchNorm2d: 2-352                [4, 16, 128, 128]         (recursive)
│    └─ReLU: 2-353                       [4, 16, 128, 128]         --
│    └─MaxPool2d: 2-354                  [4, 16, 64, 64]           --
│    └─Bottleneck: 2-355                 [4, 32, 64, 64]           (recursive)
│    │    └─Conv2d: 3-501                [4, 8, 64, 64]            (recursive)
│    │    └─BatchNorm2d: 3-502           [4, 8, 64, 64]            (recursive)
│    │    └─ReLU: 3-503                  [4, 8, 64, 64]            --
│    │    └─Conv2d: 3-504                [4, 8, 64, 64]            (recursive)
│    │    └─BatchNorm2d: 3-505           [4, 8, 64, 64]            (recursive)
│    │    └─ReLU: 3-506                  [4, 8, 64, 64]            --
│    │    └─Conv2d: 3-507                [4, 32, 64, 64]           (recursive)
│    │    └─BatchNorm2d: 3-508           [4, 32, 64, 64]           (recursive)
│    │    └─Sequential: 3-509            [4, 32, 64, 64]           (recursive)
│    │    └─ReLU: 3-510                  [4, 32, 64, 64]           --
│    └─AdaptiveAvgPool2d: 2-356          [4, 32, 2, 2]             --
│    └─Flatten: 2-357                    [4, 128]                  --
├─CNNModel: 1-52                         [4, 128]                  (recursive)
│    └─Conv2d: 2-358                     [4, 16, 128, 128]         (recursive)
│    └─BatchNorm2d: 2-359                [4, 16, 128, 128]         (recursive)
│    └─ReLU: 2-360                       [4, 16, 128, 128]         --
│    └─MaxPool2d: 2-361                  [4, 16, 64, 64]           --
│    └─Bottleneck: 2-362                 [4, 32, 64, 64]           (recursive)
│    │    └─Conv2d: 3-511                [4, 8, 64, 64]            (recursive)
│    │    └─BatchNorm2d: 3-512           [4, 8, 64, 64]            (recursive)
│    │    └─ReLU: 3-513                  [4, 8, 64, 64]            --
│    │    └─Conv2d: 3-514                [4, 8, 64, 64]            (recursive)
│    │    └─BatchNorm2d: 3-515           [4, 8, 64, 64]            (recursive)
│    │    └─ReLU: 3-516                  [4, 8, 64, 64]            --
│    │    └─Conv2d: 3-517                [4, 32, 64, 64]           (recursive)
│    │    └─BatchNorm2d: 3-518           [4, 32, 64, 64]           (recursive)
│    │    └─Sequential: 3-519            [4, 32, 64, 64]           (recursive)
│    │    └─ReLU: 3-520                  [4, 32, 64, 64]           --
│    └─AdaptiveAvgPool2d: 2-363          [4, 32, 2, 2]             --
│    └─Flatten: 2-364                    [4, 128]                  --
├─CNNModel: 1-53                         [4, 128]                  (recursive)
│    └─Conv2d: 2-365                     [4, 16, 128, 128]         (recursive)
│    └─BatchNorm2d: 2-366                [4, 16, 128, 128]         (recursive)
│    └─ReLU: 2-367                       [4, 16, 128, 128]         --
│    └─MaxPool2d: 2-368                  [4, 16, 64, 64]           --
│    └─Bottleneck: 2-369                 [4, 32, 64, 64]           (recursive)
│    │    └─Conv2d: 3-521                [4, 8, 64, 64]            (recursive)
│    │    └─BatchNorm2d: 3-522           [4, 8, 64, 64]            (recursive)
│    │    └─ReLU: 3-523                  [4, 8, 64, 64]            --
│    │    └─Conv2d: 3-524                [4, 8, 64, 64]            (recursive)
│    │    └─BatchNorm2d: 3-525           [4, 8, 64, 64]            (recursive)
│    │    └─ReLU: 3-526                  [4, 8, 64, 64]            --
│    │    └─Conv2d: 3-527                [4, 32, 64, 64]           (recursive)
│    │    └─BatchNorm2d: 3-528           [4, 32, 64, 64]           (recursive)
│    │    └─Sequential: 3-529            [4, 32, 64, 64]           (recursive)
│    │    └─ReLU: 3-530                  [4, 32, 64, 64]           --
│    └─AdaptiveAvgPool2d: 2-370          [4, 32, 2, 2]             --
│    └─Flatten: 2-371                    [4, 128]                  --
├─CNNModel: 1-54                         [4, 128]                  (recursive)
│    └─Conv2d: 2-372                     [4, 16, 128, 128]         (recursive)
│    └─BatchNorm2d: 2-373                [4, 16, 128, 128]         (recursive)
│    └─ReLU: 2-374                       [4, 16, 128, 128]         --
│    └─MaxPool2d: 2-375                  [4, 16, 64, 64]           --
│    └─Bottleneck: 2-376                 [4, 32, 64, 64]           (recursive)
│    │    └─Conv2d: 3-531                [4, 8, 64, 64]            (recursive)
│    │    └─BatchNorm2d: 3-532           [4, 8, 64, 64]            (recursive)
│    │    └─ReLU: 3-533                  [4, 8, 64, 64]            --
│    │    └─Conv2d: 3-534                [4, 8, 64, 64]            (recursive)
│    │    └─BatchNorm2d: 3-535           [4, 8, 64, 64]            (recursive)
│    │    └─ReLU: 3-536                  [4, 8, 64, 64]            --
│    │    └─Conv2d: 3-537                [4, 32, 64, 64]           (recursive)
│    │    └─BatchNorm2d: 3-538           [4, 32, 64, 64]           (recursive)
│    │    └─Sequential: 3-539            [4, 32, 64, 64]           (recursive)
│    │    └─ReLU: 3-540                  [4, 32, 64, 64]           --
│    └─AdaptiveAvgPool2d: 2-377          [4, 32, 2, 2]             --
│    └─Flatten: 2-378                    [4, 128]                  --
├─CNNModel: 1-55                         [4, 128]                  (recursive)
│    └─Conv2d: 2-379                     [4, 16, 128, 128]         (recursive)
│    └─BatchNorm2d: 2-380                [4, 16, 128, 128]         (recursive)
│    └─ReLU: 2-381                       [4, 16, 128, 128]         --
│    └─MaxPool2d: 2-382                  [4, 16, 64, 64]           --
│    └─Bottleneck: 2-383                 [4, 32, 64, 64]           (recursive)
│    │    └─Conv2d: 3-541                [4, 8, 64, 64]            (recursive)
│    │    └─BatchNorm2d: 3-542           [4, 8, 64, 64]            (recursive)
│    │    └─ReLU: 3-543                  [4, 8, 64, 64]            --
│    │    └─Conv2d: 3-544                [4, 8, 64, 64]            (recursive)
│    │    └─BatchNorm2d: 3-545           [4, 8, 64, 64]            (recursive)
│    │    └─ReLU: 3-546                  [4, 8, 64, 64]            --
│    │    └─Conv2d: 3-547                [4, 32, 64, 64]           (recursive)
│    │    └─BatchNorm2d: 3-548           [4, 32, 64, 64]           (recursive)
│    │    └─Sequential: 3-549            [4, 32, 64, 64]           (recursive)
│    │    └─ReLU: 3-550                  [4, 32, 64, 64]           --
│    └─AdaptiveAvgPool2d: 2-384          [4, 32, 2, 2]             --
│    └─Flatten: 2-385                    [4, 128]                  --
├─CNNModel: 1-56                         [4, 128]                  (recursive)
│    └─Conv2d: 2-386                     [4, 16, 128, 128]         (recursive)
│    └─BatchNorm2d: 2-387                [4, 16, 128, 128]         (recursive)
│    └─ReLU: 2-388                       [4, 16, 128, 128]         --
│    └─MaxPool2d: 2-389                  [4, 16, 64, 64]           --
│    └─Bottleneck: 2-390                 [4, 32, 64, 64]           (recursive)
│    │    └─Conv2d: 3-551                [4, 8, 64, 64]            (recursive)
│    │    └─BatchNorm2d: 3-552           [4, 8, 64, 64]            (recursive)
│    │    └─ReLU: 3-553                  [4, 8, 64, 64]            --
│    │    └─Conv2d: 3-554                [4, 8, 64, 64]            (recursive)
│    │    └─BatchNorm2d: 3-555           [4, 8, 64, 64]            (recursive)
│    │    └─ReLU: 3-556                  [4, 8, 64, 64]            --
│    │    └─Conv2d: 3-557                [4, 32, 64, 64]           (recursive)
│    │    └─BatchNorm2d: 3-558           [4, 32, 64, 64]           (recursive)
│    │    └─Sequential: 3-559            [4, 32, 64, 64]           (recursive)
│    │    └─ReLU: 3-560                  [4, 32, 64, 64]           --
│    └─AdaptiveAvgPool2d: 2-391          [4, 32, 2, 2]             --
│    └─Flatten: 2-392                    [4, 128]                  --
├─CNNModel: 1-57                         [4, 128]                  (recursive)
│    └─Conv2d: 2-393                     [4, 16, 128, 128]         (recursive)
│    └─BatchNorm2d: 2-394                [4, 16, 128, 128]         (recursive)
│    └─ReLU: 2-395                       [4, 16, 128, 128]         --
│    └─MaxPool2d: 2-396                  [4, 16, 64, 64]           --
│    └─Bottleneck: 2-397                 [4, 32, 64, 64]           (recursive)
│    │    └─Conv2d: 3-561                [4, 8, 64, 64]            (recursive)
│    │    └─BatchNorm2d: 3-562           [4, 8, 64, 64]            (recursive)
│    │    └─ReLU: 3-563                  [4, 8, 64, 64]            --
│    │    └─Conv2d: 3-564                [4, 8, 64, 64]            (recursive)
│    │    └─BatchNorm2d: 3-565           [4, 8, 64, 64]            (recursive)
│    │    └─ReLU: 3-566                  [4, 8, 64, 64]            --
│    │    └─Conv2d: 3-567                [4, 32, 64, 64]           (recursive)
│    │    └─BatchNorm2d: 3-568           [4, 32, 64, 64]           (recursive)
│    │    └─Sequential: 3-569            [4, 32, 64, 64]           (recursive)
│    │    └─ReLU: 3-570                  [4, 32, 64, 64]           --
│    └─AdaptiveAvgPool2d: 2-398          [4, 32, 2, 2]             --
│    └─Flatten: 2-399                    [4, 128]                  --
├─CNNModel: 1-58                         [4, 128]                  (recursive)
│    └─Conv2d: 2-400                     [4, 16, 128, 128]         (recursive)
│    └─BatchNorm2d: 2-401                [4, 16, 128, 128]         (recursive)
│    └─ReLU: 2-402                       [4, 16, 128, 128]         --
│    └─MaxPool2d: 2-403                  [4, 16, 64, 64]           --
│    └─Bottleneck: 2-404                 [4, 32, 64, 64]           (recursive)
│    │    └─Conv2d: 3-571                [4, 8, 64, 64]            (recursive)
│    │    └─BatchNorm2d: 3-572           [4, 8, 64, 64]            (recursive)
│    │    └─ReLU: 3-573                  [4, 8, 64, 64]            --
│    │    └─Conv2d: 3-574                [4, 8, 64, 64]            (recursive)
│    │    └─BatchNorm2d: 3-575           [4, 8, 64, 64]            (recursive)
│    │    └─ReLU: 3-576                  [4, 8, 64, 64]            --
│    │    └─Conv2d: 3-577                [4, 32, 64, 64]           (recursive)
│    │    └─BatchNorm2d: 3-578           [4, 32, 64, 64]           (recursive)
│    │    └─Sequential: 3-579            [4, 32, 64, 64]           (recursive)
│    │    └─ReLU: 3-580                  [4, 32, 64, 64]           --
│    └─AdaptiveAvgPool2d: 2-405          [4, 32, 2, 2]             --
│    └─Flatten: 2-406                    [4, 128]                  --
├─CNNModel: 1-59                         [4, 128]                  (recursive)
│    └─Conv2d: 2-407                     [4, 16, 128, 128]         (recursive)
│    └─BatchNorm2d: 2-408                [4, 16, 128, 128]         (recursive)
│    └─ReLU: 2-409                       [4, 16, 128, 128]         --
│    └─MaxPool2d: 2-410                  [4, 16, 64, 64]           --
│    └─Bottleneck: 2-411                 [4, 32, 64, 64]           (recursive)
│    │    └─Conv2d: 3-581                [4, 8, 64, 64]            (recursive)
│    │    └─BatchNorm2d: 3-582           [4, 8, 64, 64]            (recursive)
│    │    └─ReLU: 3-583                  [4, 8, 64, 64]            --
│    │    └─Conv2d: 3-584                [4, 8, 64, 64]            (recursive)
│    │    └─BatchNorm2d: 3-585           [4, 8, 64, 64]            (recursive)
│    │    └─ReLU: 3-586                  [4, 8, 64, 64]            --
│    │    └─Conv2d: 3-587                [4, 32, 64, 64]           (recursive)
│    │    └─BatchNorm2d: 3-588           [4, 32, 64, 64]           (recursive)
│    │    └─Sequential: 3-589            [4, 32, 64, 64]           (recursive)
│    │    └─ReLU: 3-590                  [4, 32, 64, 64]           --
│    └─AdaptiveAvgPool2d: 2-412          [4, 32, 2, 2]             --
│    └─Flatten: 2-413                    [4, 128]                  --
├─CNNModel: 1-60                         [4, 128]                  (recursive)
│    └─Conv2d: 2-414                     [4, 16, 128, 128]         (recursive)
│    └─BatchNorm2d: 2-415                [4, 16, 128, 128]         (recursive)
│    └─ReLU: 2-416                       [4, 16, 128, 128]         --
│    └─MaxPool2d: 2-417                  [4, 16, 64, 64]           --
│    └─Bottleneck: 2-418                 [4, 32, 64, 64]           (recursive)
│    │    └─Conv2d: 3-591                [4, 8, 64, 64]            (recursive)
│    │    └─BatchNorm2d: 3-592           [4, 8, 64, 64]            (recursive)
│    │    └─ReLU: 3-593                  [4, 8, 64, 64]            --
│    │    └─Conv2d: 3-594                [4, 8, 64, 64]            (recursive)
│    │    └─BatchNorm2d: 3-595           [4, 8, 64, 64]            (recursive)
│    │    └─ReLU: 3-596                  [4, 8, 64, 64]            --
│    │    └─Conv2d: 3-597                [4, 32, 64, 64]           (recursive)
│    │    └─BatchNorm2d: 3-598           [4, 32, 64, 64]           (recursive)
│    │    └─Sequential: 3-599            [4, 32, 64, 64]           (recursive)
│    │    └─ReLU: 3-600                  [4, 32, 64, 64]           --
│    └─AdaptiveAvgPool2d: 2-419          [4, 32, 2, 2]             --
│    └─Flatten: 2-420                    [4, 128]                  --
├─CNNModel: 1-61                         [4, 128]                  (recursive)
│    └─Conv2d: 2-421                     [4, 16, 128, 128]         (recursive)
│    └─BatchNorm2d: 2-422                [4, 16, 128, 128]         (recursive)
│    └─ReLU: 2-423                       [4, 16, 128, 128]         --
│    └─MaxPool2d: 2-424                  [4, 16, 64, 64]           --
│    └─Bottleneck: 2-425                 [4, 32, 64, 64]           (recursive)
│    │    └─Conv2d: 3-601                [4, 8, 64, 64]            (recursive)
│    │    └─BatchNorm2d: 3-602           [4, 8, 64, 64]            (recursive)
│    │    └─ReLU: 3-603                  [4, 8, 64, 64]            --
│    │    └─Conv2d: 3-604                [4, 8, 64, 64]            (recursive)
│    │    └─BatchNorm2d: 3-605           [4, 8, 64, 64]            (recursive)
│    │    └─ReLU: 3-606                  [4, 8, 64, 64]            --
│    │    └─Conv2d: 3-607                [4, 32, 64, 64]           (recursive)
│    │    └─BatchNorm2d: 3-608           [4, 32, 64, 64]           (recursive)
│    │    └─Sequential: 3-609            [4, 32, 64, 64]           (recursive)
│    │    └─ReLU: 3-610                  [4, 32, 64, 64]           --
│    └─AdaptiveAvgPool2d: 2-426          [4, 32, 2, 2]             --
│    └─Flatten: 2-427                    [4, 128]                  --
├─CNNModel: 1-62                         [4, 128]                  (recursive)
│    └─Conv2d: 2-428                     [4, 16, 128, 128]         (recursive)
│    └─BatchNorm2d: 2-429                [4, 16, 128, 128]         (recursive)
│    └─ReLU: 2-430                       [4, 16, 128, 128]         --
│    └─MaxPool2d: 2-431                  [4, 16, 64, 64]           --
│    └─Bottleneck: 2-432                 [4, 32, 64, 64]           (recursive)
│    │    └─Conv2d: 3-611                [4, 8, 64, 64]            (recursive)
│    │    └─BatchNorm2d: 3-612           [4, 8, 64, 64]            (recursive)
│    │    └─ReLU: 3-613                  [4, 8, 64, 64]            --
│    │    └─Conv2d: 3-614                [4, 8, 64, 64]            (recursive)
│    │    └─BatchNorm2d: 3-615           [4, 8, 64, 64]            (recursive)
│    │    └─ReLU: 3-616                  [4, 8, 64, 64]            --
│    │    └─Conv2d: 3-617                [4, 32, 64, 64]           (recursive)
│    │    └─BatchNorm2d: 3-618           [4, 32, 64, 64]           (recursive)
│    │    └─Sequential: 3-619            [4, 32, 64, 64]           (recursive)
│    │    └─ReLU: 3-620                  [4, 32, 64, 64]           --
│    └─AdaptiveAvgPool2d: 2-433          [4, 32, 2, 2]             --
│    └─Flatten: 2-434                    [4, 128]                  --
├─CNNModel: 1-63                         [4, 128]                  (recursive)
│    └─Conv2d: 2-435                     [4, 16, 128, 128]         (recursive)
│    └─BatchNorm2d: 2-436                [4, 16, 128, 128]         (recursive)
│    └─ReLU: 2-437                       [4, 16, 128, 128]         --
│    └─MaxPool2d: 2-438                  [4, 16, 64, 64]           --
│    └─Bottleneck: 2-439                 [4, 32, 64, 64]           (recursive)
│    │    └─Conv2d: 3-621                [4, 8, 64, 64]            (recursive)
│    │    └─BatchNorm2d: 3-622           [4, 8, 64, 64]            (recursive)
│    │    └─ReLU: 3-623                  [4, 8, 64, 64]            --
│    │    └─Conv2d: 3-624                [4, 8, 64, 64]            (recursive)
│    │    └─BatchNorm2d: 3-625           [4, 8, 64, 64]            (recursive)
│    │    └─ReLU: 3-626                  [4, 8, 64, 64]            --
│    │    └─Conv2d: 3-627                [4, 32, 64, 64]           (recursive)
│    │    └─BatchNorm2d: 3-628           [4, 32, 64, 64]           (recursive)
│    │    └─Sequential: 3-629            [4, 32, 64, 64]           (recursive)
│    │    └─ReLU: 3-630                  [4, 32, 64, 64]           --
│    └─AdaptiveAvgPool2d: 2-440          [4, 32, 2, 2]             --
│    └─Flatten: 2-441                    [4, 128]                  --
├─CNNModel: 1-64                         [4, 128]                  (recursive)
│    └─Conv2d: 2-442                     [4, 16, 128, 128]         (recursive)
│    └─BatchNorm2d: 2-443                [4, 16, 128, 128]         (recursive)
│    └─ReLU: 2-444                       [4, 16, 128, 128]         --
│    └─MaxPool2d: 2-445                  [4, 16, 64, 64]           --
│    └─Bottleneck: 2-446                 [4, 32, 64, 64]           (recursive)
│    │    └─Conv2d: 3-631                [4, 8, 64, 64]            (recursive)
│    │    └─BatchNorm2d: 3-632           [4, 8, 64, 64]            (recursive)
│    │    └─ReLU: 3-633                  [4, 8, 64, 64]            --
│    │    └─Conv2d: 3-634                [4, 8, 64, 64]            (recursive)
│    │    └─BatchNorm2d: 3-635           [4, 8, 64, 64]            (recursive)
│    │    └─ReLU: 3-636                  [4, 8, 64, 64]            --
│    │    └─Conv2d: 3-637                [4, 32, 64, 64]           (recursive)
│    │    └─BatchNorm2d: 3-638           [4, 32, 64, 64]           (recursive)
│    │    └─Sequential: 3-639            [4, 32, 64, 64]           (recursive)
│    │    └─ReLU: 3-640                  [4, 32, 64, 64]           --
│    └─AdaptiveAvgPool2d: 2-447          [4, 32, 2, 2]             --
│    └─Flatten: 2-448                    [4, 128]                  --
├─CNNModel: 1-65                         [4, 128]                  (recursive)
│    └─Conv2d: 2-449                     [4, 16, 128, 128]         (recursive)
│    └─BatchNorm2d: 2-450                [4, 16, 128, 128]         (recursive)
│    └─ReLU: 2-451                       [4, 16, 128, 128]         --
│    └─MaxPool2d: 2-452                  [4, 16, 64, 64]           --
│    └─Bottleneck: 2-453                 [4, 32, 64, 64]           (recursive)
│    │    └─Conv2d: 3-641                [4, 8, 64, 64]            (recursive)
│    │    └─BatchNorm2d: 3-642           [4, 8, 64, 64]            (recursive)
│    │    └─ReLU: 3-643                  [4, 8, 64, 64]            --
│    │    └─Conv2d: 3-644                [4, 8, 64, 64]            (recursive)
│    │    └─BatchNorm2d: 3-645           [4, 8, 64, 64]            (recursive)
│    │    └─ReLU: 3-646                  [4, 8, 64, 64]            --
│    │    └─Conv2d: 3-647                [4, 32, 64, 64]           (recursive)
│    │    └─BatchNorm2d: 3-648           [4, 32, 64, 64]           (recursive)
│    │    └─Sequential: 3-649            [4, 32, 64, 64]           (recursive)
│    │    └─ReLU: 3-650                  [4, 32, 64, 64]           --
│    └─AdaptiveAvgPool2d: 2-454          [4, 32, 2, 2]             --
│    └─Flatten: 2-455                    [4, 128]                  --
├─CNNModel: 1-66                         [4, 128]                  (recursive)
│    └─Conv2d: 2-456                     [4, 16, 128, 128]         (recursive)
│    └─BatchNorm2d: 2-457                [4, 16, 128, 128]         (recursive)
│    └─ReLU: 2-458                       [4, 16, 128, 128]         --
│    └─MaxPool2d: 2-459                  [4, 16, 64, 64]           --
│    └─Bottleneck: 2-460                 [4, 32, 64, 64]           (recursive)
│    │    └─Conv2d: 3-651                [4, 8, 64, 64]            (recursive)
│    │    └─BatchNorm2d: 3-652           [4, 8, 64, 64]            (recursive)
│    │    └─ReLU: 3-653                  [4, 8, 64, 64]            --
│    │    └─Conv2d: 3-654                [4, 8, 64, 64]            (recursive)
│    │    └─BatchNorm2d: 3-655           [4, 8, 64, 64]            (recursive)
│    │    └─ReLU: 3-656                  [4, 8, 64, 64]            --
│    │    └─Conv2d: 3-657                [4, 32, 64, 64]           (recursive)
│    │    └─BatchNorm2d: 3-658           [4, 32, 64, 64]           (recursive)
│    │    └─Sequential: 3-659            [4, 32, 64, 64]           (recursive)
│    │    └─ReLU: 3-660                  [4, 32, 64, 64]           --
│    └─AdaptiveAvgPool2d: 2-461          [4, 32, 2, 2]             --
│    └─Flatten: 2-462                    [4, 128]                  --
├─CNNModel: 1-67                         [4, 128]                  (recursive)
│    └─Conv2d: 2-463                     [4, 16, 128, 128]         (recursive)
│    └─BatchNorm2d: 2-464                [4, 16, 128, 128]         (recursive)
│    └─ReLU: 2-465                       [4, 16, 128, 128]         --
│    └─MaxPool2d: 2-466                  [4, 16, 64, 64]           --
│    └─Bottleneck: 2-467                 [4, 32, 64, 64]           (recursive)
│    │    └─Conv2d: 3-661                [4, 8, 64, 64]            (recursive)
│    │    └─BatchNorm2d: 3-662           [4, 8, 64, 64]            (recursive)
│    │    └─ReLU: 3-663                  [4, 8, 64, 64]            --
│    │    └─Conv2d: 3-664                [4, 8, 64, 64]            (recursive)
│    │    └─BatchNorm2d: 3-665           [4, 8, 64, 64]            (recursive)
│    │    └─ReLU: 3-666                  [4, 8, 64, 64]            --
│    │    └─Conv2d: 3-667                [4, 32, 64, 64]           (recursive)
│    │    └─BatchNorm2d: 3-668           [4, 32, 64, 64]           (recursive)
│    │    └─Sequential: 3-669            [4, 32, 64, 64]           (recursive)
│    │    └─ReLU: 3-670                  [4, 32, 64, 64]           --
│    └─AdaptiveAvgPool2d: 2-468          [4, 32, 2, 2]             --
│    └─Flatten: 2-469                    [4, 128]                  --
├─CNNModel: 1-68                         [4, 128]                  (recursive)
│    └─Conv2d: 2-470                     [4, 16, 128, 128]         (recursive)
│    └─BatchNorm2d: 2-471                [4, 16, 128, 128]         (recursive)
│    └─ReLU: 2-472                       [4, 16, 128, 128]         --
│    └─MaxPool2d: 2-473                  [4, 16, 64, 64]           --
│    └─Bottleneck: 2-474                 [4, 32, 64, 64]           (recursive)
│    │    └─Conv2d: 3-671                [4, 8, 64, 64]            (recursive)
│    │    └─BatchNorm2d: 3-672           [4, 8, 64, 64]            (recursive)
│    │    └─ReLU: 3-673                  [4, 8, 64, 64]            --
│    │    └─Conv2d: 3-674                [4, 8, 64, 64]            (recursive)
│    │    └─BatchNorm2d: 3-675           [4, 8, 64, 64]            (recursive)
│    │    └─ReLU: 3-676                  [4, 8, 64, 64]            --
│    │    └─Conv2d: 3-677                [4, 32, 64, 64]           (recursive)
│    │    └─BatchNorm2d: 3-678           [4, 32, 64, 64]           (recursive)
│    │    └─Sequential: 3-679            [4, 32, 64, 64]           (recursive)
│    │    └─ReLU: 3-680                  [4, 32, 64, 64]           --
│    └─AdaptiveAvgPool2d: 2-475          [4, 32, 2, 2]             --
│    └─Flatten: 2-476                    [4, 128]                  --
├─CNNModel: 1-69                         [4, 128]                  (recursive)
│    └─Conv2d: 2-477                     [4, 16, 128, 128]         (recursive)
│    └─BatchNorm2d: 2-478                [4, 16, 128, 128]         (recursive)
│    └─ReLU: 2-479                       [4, 16, 128, 128]         --
│    └─MaxPool2d: 2-480                  [4, 16, 64, 64]           --
│    └─Bottleneck: 2-481                 [4, 32, 64, 64]           (recursive)
│    │    └─Conv2d: 3-681                [4, 8, 64, 64]            (recursive)
│    │    └─BatchNorm2d: 3-682           [4, 8, 64, 64]            (recursive)
│    │    └─ReLU: 3-683                  [4, 8, 64, 64]            --
│    │    └─Conv2d: 3-684                [4, 8, 64, 64]            (recursive)
│    │    └─BatchNorm2d: 3-685           [4, 8, 64, 64]            (recursive)
│    │    └─ReLU: 3-686                  [4, 8, 64, 64]            --
│    │    └─Conv2d: 3-687                [4, 32, 64, 64]           (recursive)
│    │    └─BatchNorm2d: 3-688           [4, 32, 64, 64]           (recursive)
│    │    └─Sequential: 3-689            [4, 32, 64, 64]           (recursive)
│    │    └─ReLU: 3-690                  [4, 32, 64, 64]           --
│    └─AdaptiveAvgPool2d: 2-482          [4, 32, 2, 2]             --
│    └─Flatten: 2-483                    [4, 128]                  --
├─CNNModel: 1-70                         [4, 128]                  (recursive)
│    └─Conv2d: 2-484                     [4, 16, 128, 128]         (recursive)
│    └─BatchNorm2d: 2-485                [4, 16, 128, 128]         (recursive)
│    └─ReLU: 2-486                       [4, 16, 128, 128]         --
│    └─MaxPool2d: 2-487                  [4, 16, 64, 64]           --
│    └─Bottleneck: 2-488                 [4, 32, 64, 64]           (recursive)
│    │    └─Conv2d: 3-691                [4, 8, 64, 64]            (recursive)
│    │    └─BatchNorm2d: 3-692           [4, 8, 64, 64]            (recursive)
│    │    └─ReLU: 3-693                  [4, 8, 64, 64]            --
│    │    └─Conv2d: 3-694                [4, 8, 64, 64]            (recursive)
│    │    └─BatchNorm2d: 3-695           [4, 8, 64, 64]            (recursive)
│    │    └─ReLU: 3-696                  [4, 8, 64, 64]            --
│    │    └─Conv2d: 3-697                [4, 32, 64, 64]           (recursive)
│    │    └─BatchNorm2d: 3-698           [4, 32, 64, 64]           (recursive)
│    │    └─Sequential: 3-699            [4, 32, 64, 64]           (recursive)
│    │    └─ReLU: 3-700                  [4, 32, 64, 64]           --
│    └─AdaptiveAvgPool2d: 2-489          [4, 32, 2, 2]             --
│    └─Flatten: 2-490                    [4, 128]                  --
├─CNNModel: 1-71                         [4, 128]                  (recursive)
│    └─Conv2d: 2-491                     [4, 16, 128, 128]         (recursive)
│    └─BatchNorm2d: 2-492                [4, 16, 128, 128]         (recursive)
│    └─ReLU: 2-493                       [4, 16, 128, 128]         --
│    └─MaxPool2d: 2-494                  [4, 16, 64, 64]           --
│    └─Bottleneck: 2-495                 [4, 32, 64, 64]           (recursive)
│    │    └─Conv2d: 3-701                [4, 8, 64, 64]            (recursive)
│    │    └─BatchNorm2d: 3-702           [4, 8, 64, 64]            (recursive)
│    │    └─ReLU: 3-703                  [4, 8, 64, 64]            --
│    │    └─Conv2d: 3-704                [4, 8, 64, 64]            (recursive)
│    │    └─BatchNorm2d: 3-705           [4, 8, 64, 64]            (recursive)
│    │    └─ReLU: 3-706                  [4, 8, 64, 64]            --
│    │    └─Conv2d: 3-707                [4, 32, 64, 64]           (recursive)
│    │    └─BatchNorm2d: 3-708           [4, 32, 64, 64]           (recursive)
│    │    └─Sequential: 3-709            [4, 32, 64, 64]           (recursive)
│    │    └─ReLU: 3-710                  [4, 32, 64, 64]           --
│    └─AdaptiveAvgPool2d: 2-496          [4, 32, 2, 2]             --
│    └─Flatten: 2-497                    [4, 128]                  --
├─CNNModel: 1-72                         [4, 128]                  (recursive)
│    └─Conv2d: 2-498                     [4, 16, 128, 128]         (recursive)
│    └─BatchNorm2d: 2-499                [4, 16, 128, 128]         (recursive)
│    └─ReLU: 2-500                       [4, 16, 128, 128]         --
│    └─MaxPool2d: 2-501                  [4, 16, 64, 64]           --
│    └─Bottleneck: 2-502                 [4, 32, 64, 64]           (recursive)
│    │    └─Conv2d: 3-711                [4, 8, 64, 64]            (recursive)
│    │    └─BatchNorm2d: 3-712           [4, 8, 64, 64]            (recursive)
│    │    └─ReLU: 3-713                  [4, 8, 64, 64]            --
│    │    └─Conv2d: 3-714                [4, 8, 64, 64]            (recursive)
│    │    └─BatchNorm2d: 3-715           [4, 8, 64, 64]            (recursive)
│    │    └─ReLU: 3-716                  [4, 8, 64, 64]            --
│    │    └─Conv2d: 3-717                [4, 32, 64, 64]           (recursive)
│    │    └─BatchNorm2d: 3-718           [4, 32, 64, 64]           (recursive)
│    │    └─Sequential: 3-719            [4, 32, 64, 64]           (recursive)
│    │    └─ReLU: 3-720                  [4, 32, 64, 64]           --
│    └─AdaptiveAvgPool2d: 2-503          [4, 32, 2, 2]             --
│    └─Flatten: 2-504                    [4, 128]                  --
├─CNNModel: 1-73                         [4, 128]                  (recursive)
│    └─Conv2d: 2-505                     [4, 16, 128, 128]         (recursive)
│    └─BatchNorm2d: 2-506                [4, 16, 128, 128]         (recursive)
│    └─ReLU: 2-507                       [4, 16, 128, 128]         --
│    └─MaxPool2d: 2-508                  [4, 16, 64, 64]           --
│    └─Bottleneck: 2-509                 [4, 32, 64, 64]           (recursive)
│    │    └─Conv2d: 3-721                [4, 8, 64, 64]            (recursive)
│    │    └─BatchNorm2d: 3-722           [4, 8, 64, 64]            (recursive)
│    │    └─ReLU: 3-723                  [4, 8, 64, 64]            --
│    │    └─Conv2d: 3-724                [4, 8, 64, 64]            (recursive)
│    │    └─BatchNorm2d: 3-725           [4, 8, 64, 64]            (recursive)
│    │    └─ReLU: 3-726                  [4, 8, 64, 64]            --
│    │    └─Conv2d: 3-727                [4, 32, 64, 64]           (recursive)
│    │    └─BatchNorm2d: 3-728           [4, 32, 64, 64]           (recursive)
│    │    └─Sequential: 3-729            [4, 32, 64, 64]           (recursive)
│    │    └─ReLU: 3-730                  [4, 32, 64, 64]           --
│    └─AdaptiveAvgPool2d: 2-510          [4, 32, 2, 2]             --
│    └─Flatten: 2-511                    [4, 128]                  --
├─CNNModel: 1-74                         [4, 128]                  (recursive)
│    └─Conv2d: 2-512                     [4, 16, 128, 128]         (recursive)
│    └─BatchNorm2d: 2-513                [4, 16, 128, 128]         (recursive)
│    └─ReLU: 2-514                       [4, 16, 128, 128]         --
│    └─MaxPool2d: 2-515                  [4, 16, 64, 64]           --
│    └─Bottleneck: 2-516                 [4, 32, 64, 64]           (recursive)
│    │    └─Conv2d: 3-731                [4, 8, 64, 64]            (recursive)
│    │    └─BatchNorm2d: 3-732           [4, 8, 64, 64]            (recursive)
│    │    └─ReLU: 3-733                  [4, 8, 64, 64]            --
│    │    └─Conv2d: 3-734                [4, 8, 64, 64]            (recursive)
│    │    └─BatchNorm2d: 3-735           [4, 8, 64, 64]            (recursive)
│    │    └─ReLU: 3-736                  [4, 8, 64, 64]            --
│    │    └─Conv2d: 3-737                [4, 32, 64, 64]           (recursive)
│    │    └─BatchNorm2d: 3-738           [4, 32, 64, 64]           (recursive)
│    │    └─Sequential: 3-739            [4, 32, 64, 64]           (recursive)
│    │    └─ReLU: 3-740                  [4, 32, 64, 64]           --
│    └─AdaptiveAvgPool2d: 2-517          [4, 32, 2, 2]             --
│    └─Flatten: 2-518                    [4, 128]                  --
├─CNNModel: 1-75                         [4, 128]                  (recursive)
│    └─Conv2d: 2-519                     [4, 16, 128, 128]         (recursive)
│    └─BatchNorm2d: 2-520                [4, 16, 128, 128]         (recursive)
│    └─ReLU: 2-521                       [4, 16, 128, 128]         --
│    └─MaxPool2d: 2-522                  [4, 16, 64, 64]           --
│    └─Bottleneck: 2-523                 [4, 32, 64, 64]           (recursive)
│    │    └─Conv2d: 3-741                [4, 8, 64, 64]            (recursive)
│    │    └─BatchNorm2d: 3-742           [4, 8, 64, 64]            (recursive)
│    │    └─ReLU: 3-743                  [4, 8, 64, 64]            --
│    │    └─Conv2d: 3-744                [4, 8, 64, 64]            (recursive)
│    │    └─BatchNorm2d: 3-745           [4, 8, 64, 64]            (recursive)
│    │    └─ReLU: 3-746                  [4, 8, 64, 64]            --
│    │    └─Conv2d: 3-747                [4, 32, 64, 64]           (recursive)
│    │    └─BatchNorm2d: 3-748           [4, 32, 64, 64]           (recursive)
│    │    └─Sequential: 3-749            [4, 32, 64, 64]           (recursive)
│    │    └─ReLU: 3-750                  [4, 32, 64, 64]           --
│    └─AdaptiveAvgPool2d: 2-524          [4, 32, 2, 2]             --
│    └─Flatten: 2-525                    [4, 128]                  --
├─CNNModel: 1-76                         [4, 128]                  (recursive)
│    └─Conv2d: 2-526                     [4, 16, 128, 128]         (recursive)
│    └─BatchNorm2d: 2-527                [4, 16, 128, 128]         (recursive)
│    └─ReLU: 2-528                       [4, 16, 128, 128]         --
│    └─MaxPool2d: 2-529                  [4, 16, 64, 64]           --
│    └─Bottleneck: 2-530                 [4, 32, 64, 64]           (recursive)
│    │    └─Conv2d: 3-751                [4, 8, 64, 64]            (recursive)
│    │    └─BatchNorm2d: 3-752           [4, 8, 64, 64]            (recursive)
│    │    └─ReLU: 3-753                  [4, 8, 64, 64]            --
│    │    └─Conv2d: 3-754                [4, 8, 64, 64]            (recursive)
│    │    └─BatchNorm2d: 3-755           [4, 8, 64, 64]            (recursive)
│    │    └─ReLU: 3-756                  [4, 8, 64, 64]            --
│    │    └─Conv2d: 3-757                [4, 32, 64, 64]           (recursive)
│    │    └─BatchNorm2d: 3-758           [4, 32, 64, 64]           (recursive)
│    │    └─Sequential: 3-759            [4, 32, 64, 64]           (recursive)
│    │    └─ReLU: 3-760                  [4, 32, 64, 64]           --
│    └─AdaptiveAvgPool2d: 2-531          [4, 32, 2, 2]             --
│    └─Flatten: 2-532                    [4, 128]                  --
├─CNNModel: 1-77                         [4, 128]                  (recursive)
│    └─Conv2d: 2-533                     [4, 16, 128, 128]         (recursive)
│    └─BatchNorm2d: 2-534                [4, 16, 128, 128]         (recursive)
│    └─ReLU: 2-535                       [4, 16, 128, 128]         --
│    └─MaxPool2d: 2-536                  [4, 16, 64, 64]           --
│    └─Bottleneck: 2-537                 [4, 32, 64, 64]           (recursive)
│    │    └─Conv2d: 3-761                [4, 8, 64, 64]            (recursive)
│    │    └─BatchNorm2d: 3-762           [4, 8, 64, 64]            (recursive)
│    │    └─ReLU: 3-763                  [4, 8, 64, 64]            --
│    │    └─Conv2d: 3-764                [4, 8, 64, 64]            (recursive)
│    │    └─BatchNorm2d: 3-765           [4, 8, 64, 64]            (recursive)
│    │    └─ReLU: 3-766                  [4, 8, 64, 64]            --
│    │    └─Conv2d: 3-767                [4, 32, 64, 64]           (recursive)
│    │    └─BatchNorm2d: 3-768           [4, 32, 64, 64]           (recursive)
│    │    └─Sequential: 3-769            [4, 32, 64, 64]           (recursive)
│    │    └─ReLU: 3-770                  [4, 32, 64, 64]           --
│    └─AdaptiveAvgPool2d: 2-538          [4, 32, 2, 2]             --
│    └─Flatten: 2-539                    [4, 128]                  --
├─CNNModel: 1-78                         [4, 128]                  (recursive)
│    └─Conv2d: 2-540                     [4, 16, 128, 128]         (recursive)
│    └─BatchNorm2d: 2-541                [4, 16, 128, 128]         (recursive)
│    └─ReLU: 2-542                       [4, 16, 128, 128]         --
│    └─MaxPool2d: 2-543                  [4, 16, 64, 64]           --
│    └─Bottleneck: 2-544                 [4, 32, 64, 64]           (recursive)
│    │    └─Conv2d: 3-771                [4, 8, 64, 64]            (recursive)
│    │    └─BatchNorm2d: 3-772           [4, 8, 64, 64]            (recursive)
│    │    └─ReLU: 3-773                  [4, 8, 64, 64]            --
│    │    └─Conv2d: 3-774                [4, 8, 64, 64]            (recursive)
│    │    └─BatchNorm2d: 3-775           [4, 8, 64, 64]            (recursive)
│    │    └─ReLU: 3-776                  [4, 8, 64, 64]            --
│    │    └─Conv2d: 3-777                [4, 32, 64, 64]           (recursive)
│    │    └─BatchNorm2d: 3-778           [4, 32, 64, 64]           (recursive)
│    │    └─Sequential: 3-779            [4, 32, 64, 64]           (recursive)
│    │    └─ReLU: 3-780                  [4, 32, 64, 64]           --
│    └─AdaptiveAvgPool2d: 2-545          [4, 32, 2, 2]             --
│    └─Flatten: 2-546                    [4, 128]                  --
├─CNNModel: 1-79                         [4, 128]                  (recursive)
│    └─Conv2d: 2-547                     [4, 16, 128, 128]         (recursive)
│    └─BatchNorm2d: 2-548                [4, 16, 128, 128]         (recursive)
│    └─ReLU: 2-549                       [4, 16, 128, 128]         --
│    └─MaxPool2d: 2-550                  [4, 16, 64, 64]           --
│    └─Bottleneck: 2-551                 [4, 32, 64, 64]           (recursive)
│    │    └─Conv2d: 3-781                [4, 8, 64, 64]            (recursive)
│    │    └─BatchNorm2d: 3-782           [4, 8, 64, 64]            (recursive)
│    │    └─ReLU: 3-783                  [4, 8, 64, 64]            --
│    │    └─Conv2d: 3-784                [4, 8, 64, 64]            (recursive)
│    │    └─BatchNorm2d: 3-785           [4, 8, 64, 64]            (recursive)
│    │    └─ReLU: 3-786                  [4, 8, 64, 64]            --
│    │    └─Conv2d: 3-787                [4, 32, 64, 64]           (recursive)
│    │    └─BatchNorm2d: 3-788           [4, 32, 64, 64]           (recursive)
│    │    └─Sequential: 3-789            [4, 32, 64, 64]           (recursive)
│    │    └─ReLU: 3-790                  [4, 32, 64, 64]           --
│    └─AdaptiveAvgPool2d: 2-552          [4, 32, 2, 2]             --
│    └─Flatten: 2-553                    [4, 128]                  --
├─CNNModel: 1-80                         [4, 128]                  (recursive)
│    └─Conv2d: 2-554                     [4, 16, 128, 128]         (recursive)
│    └─BatchNorm2d: 2-555                [4, 16, 128, 128]         (recursive)
│    └─ReLU: 2-556                       [4, 16, 128, 128]         --
│    └─MaxPool2d: 2-557                  [4, 16, 64, 64]           --
│    └─Bottleneck: 2-558                 [4, 32, 64, 64]           (recursive)
│    │    └─Conv2d: 3-791                [4, 8, 64, 64]            (recursive)
│    │    └─BatchNorm2d: 3-792           [4, 8, 64, 64]            (recursive)
│    │    └─ReLU: 3-793                  [4, 8, 64, 64]            --
│    │    └─Conv2d: 3-794                [4, 8, 64, 64]            (recursive)
│    │    └─BatchNorm2d: 3-795           [4, 8, 64, 64]            (recursive)
│    │    └─ReLU: 3-796                  [4, 8, 64, 64]            --
│    │    └─Conv2d: 3-797                [4, 32, 64, 64]           (recursive)
│    │    └─BatchNorm2d: 3-798           [4, 32, 64, 64]           (recursive)
│    │    └─Sequential: 3-799            [4, 32, 64, 64]           (recursive)
│    │    └─ReLU: 3-800                  [4, 32, 64, 64]           --
│    └─AdaptiveAvgPool2d: 2-559          [4, 32, 2, 2]             --
│    └─Flatten: 2-560                    [4, 128]                  --
├─CNNModel: 1-81                         [4, 128]                  (recursive)
│    └─Conv2d: 2-561                     [4, 16, 128, 128]         (recursive)
│    └─BatchNorm2d: 2-562                [4, 16, 128, 128]         (recursive)
│    └─ReLU: 2-563                       [4, 16, 128, 128]         --
│    └─MaxPool2d: 2-564                  [4, 16, 64, 64]           --
│    └─Bottleneck: 2-565                 [4, 32, 64, 64]           (recursive)
│    │    └─Conv2d: 3-801                [4, 8, 64, 64]            (recursive)
│    │    └─BatchNorm2d: 3-802           [4, 8, 64, 64]            (recursive)
│    │    └─ReLU: 3-803                  [4, 8, 64, 64]            --
│    │    └─Conv2d: 3-804                [4, 8, 64, 64]            (recursive)
│    │    └─BatchNorm2d: 3-805           [4, 8, 64, 64]            (recursive)
│    │    └─ReLU: 3-806                  [4, 8, 64, 64]            --
│    │    └─Conv2d: 3-807                [4, 32, 64, 64]           (recursive)
│    │    └─BatchNorm2d: 3-808           [4, 32, 64, 64]           (recursive)
│    │    └─Sequential: 3-809            [4, 32, 64, 64]           (recursive)
│    │    └─ReLU: 3-810                  [4, 32, 64, 64]           --
│    └─AdaptiveAvgPool2d: 2-566          [4, 32, 2, 2]             --
│    └─Flatten: 2-567                    [4, 128]                  --
├─CNNModel: 1-82                         [4, 128]                  (recursive)
│    └─Conv2d: 2-568                     [4, 16, 128, 128]         (recursive)
│    └─BatchNorm2d: 2-569                [4, 16, 128, 128]         (recursive)
│    └─ReLU: 2-570                       [4, 16, 128, 128]         --
│    └─MaxPool2d: 2-571                  [4, 16, 64, 64]           --
│    └─Bottleneck: 2-572                 [4, 32, 64, 64]           (recursive)
│    │    └─Conv2d: 3-811                [4, 8, 64, 64]            (recursive)
│    │    └─BatchNorm2d: 3-812           [4, 8, 64, 64]            (recursive)
│    │    └─ReLU: 3-813                  [4, 8, 64, 64]            --
│    │    └─Conv2d: 3-814                [4, 8, 64, 64]            (recursive)
│    │    └─BatchNorm2d: 3-815           [4, 8, 64, 64]            (recursive)
│    │    └─ReLU: 3-816                  [4, 8, 64, 64]            --
│    │    └─Conv2d: 3-817                [4, 32, 64, 64]           (recursive)
│    │    └─BatchNorm2d: 3-818           [4, 32, 64, 64]           (recursive)
│    │    └─Sequential: 3-819            [4, 32, 64, 64]           (recursive)
│    │    └─ReLU: 3-820                  [4, 32, 64, 64]           --
│    └─AdaptiveAvgPool2d: 2-573          [4, 32, 2, 2]             --
│    └─Flatten: 2-574                    [4, 128]                  --
├─CNNModel: 1-83                         [4, 128]                  (recursive)
│    └─Conv2d: 2-575                     [4, 16, 128, 128]         (recursive)
│    └─BatchNorm2d: 2-576                [4, 16, 128, 128]         (recursive)
│    └─ReLU: 2-577                       [4, 16, 128, 128]         --
│    └─MaxPool2d: 2-578                  [4, 16, 64, 64]           --
│    └─Bottleneck: 2-579                 [4, 32, 64, 64]           (recursive)
│    │    └─Conv2d: 3-821                [4, 8, 64, 64]            (recursive)
│    │    └─BatchNorm2d: 3-822           [4, 8, 64, 64]            (recursive)
│    │    └─ReLU: 3-823                  [4, 8, 64, 64]            --
│    │    └─Conv2d: 3-824                [4, 8, 64, 64]            (recursive)
│    │    └─BatchNorm2d: 3-825           [4, 8, 64, 64]            (recursive)
│    │    └─ReLU: 3-826                  [4, 8, 64, 64]            --
│    │    └─Conv2d: 3-827                [4, 32, 64, 64]           (recursive)
│    │    └─BatchNorm2d: 3-828           [4, 32, 64, 64]           (recursive)
│    │    └─Sequential: 3-829            [4, 32, 64, 64]           (recursive)
│    │    └─ReLU: 3-830                  [4, 32, 64, 64]           --
│    └─AdaptiveAvgPool2d: 2-580          [4, 32, 2, 2]             --
│    └─Flatten: 2-581                    [4, 128]                  --
├─CNNModel: 1-84                         [4, 128]                  (recursive)
│    └─Conv2d: 2-582                     [4, 16, 128, 128]         (recursive)
│    └─BatchNorm2d: 2-583                [4, 16, 128, 128]         (recursive)
│    └─ReLU: 2-584                       [4, 16, 128, 128]         --
│    └─MaxPool2d: 2-585                  [4, 16, 64, 64]           --
│    └─Bottleneck: 2-586                 [4, 32, 64, 64]           (recursive)
│    │    └─Conv2d: 3-831                [4, 8, 64, 64]            (recursive)
│    │    └─BatchNorm2d: 3-832           [4, 8, 64, 64]            (recursive)
│    │    └─ReLU: 3-833                  [4, 8, 64, 64]            --
│    │    └─Conv2d: 3-834                [4, 8, 64, 64]            (recursive)
│    │    └─BatchNorm2d: 3-835           [4, 8, 64, 64]            (recursive)
│    │    └─ReLU: 3-836                  [4, 8, 64, 64]            --
│    │    └─Conv2d: 3-837                [4, 32, 64, 64]           (recursive)
│    │    └─BatchNorm2d: 3-838           [4, 32, 64, 64]           (recursive)
│    │    └─Sequential: 3-839            [4, 32, 64, 64]           (recursive)
│    │    └─ReLU: 3-840                  [4, 32, 64, 64]           --
│    └─AdaptiveAvgPool2d: 2-587          [4, 32, 2, 2]             --
│    └─Flatten: 2-588                    [4, 128]                  --
├─CNNModel: 1-85                         [4, 128]                  (recursive)
│    └─Conv2d: 2-589                     [4, 16, 128, 128]         (recursive)
│    └─BatchNorm2d: 2-590                [4, 16, 128, 128]         (recursive)
│    └─ReLU: 2-591                       [4, 16, 128, 128]         --
│    └─MaxPool2d: 2-592                  [4, 16, 64, 64]           --
│    └─Bottleneck: 2-593                 [4, 32, 64, 64]           (recursive)
│    │    └─Conv2d: 3-841                [4, 8, 64, 64]            (recursive)
│    │    └─BatchNorm2d: 3-842           [4, 8, 64, 64]            (recursive)
│    │    └─ReLU: 3-843                  [4, 8, 64, 64]            --
│    │    └─Conv2d: 3-844                [4, 8, 64, 64]            (recursive)
│    │    └─BatchNorm2d: 3-845           [4, 8, 64, 64]            (recursive)
│    │    └─ReLU: 3-846                  [4, 8, 64, 64]            --
│    │    └─Conv2d: 3-847                [4, 32, 64, 64]           (recursive)
│    │    └─BatchNorm2d: 3-848           [4, 32, 64, 64]           (recursive)
│    │    └─Sequential: 3-849            [4, 32, 64, 64]           (recursive)
│    │    └─ReLU: 3-850                  [4, 32, 64, 64]           --
│    └─AdaptiveAvgPool2d: 2-594          [4, 32, 2, 2]             --
│    └─Flatten: 2-595                    [4, 128]                  --
├─CNNModel: 1-86                         [4, 128]                  (recursive)
│    └─Conv2d: 2-596                     [4, 16, 128, 128]         (recursive)
│    └─BatchNorm2d: 2-597                [4, 16, 128, 128]         (recursive)
│    └─ReLU: 2-598                       [4, 16, 128, 128]         --
│    └─MaxPool2d: 2-599                  [4, 16, 64, 64]           --
│    └─Bottleneck: 2-600                 [4, 32, 64, 64]           (recursive)
│    │    └─Conv2d: 3-851                [4, 8, 64, 64]            (recursive)
│    │    └─BatchNorm2d: 3-852           [4, 8, 64, 64]            (recursive)
│    │    └─ReLU: 3-853                  [4, 8, 64, 64]            --
│    │    └─Conv2d: 3-854                [4, 8, 64, 64]            (recursive)
│    │    └─BatchNorm2d: 3-855           [4, 8, 64, 64]            (recursive)
│    │    └─ReLU: 3-856                  [4, 8, 64, 64]            --
│    │    └─Conv2d: 3-857                [4, 32, 64, 64]           (recursive)
│    │    └─BatchNorm2d: 3-858           [4, 32, 64, 64]           (recursive)
│    │    └─Sequential: 3-859            [4, 32, 64, 64]           (recursive)
│    │    └─ReLU: 3-860                  [4, 32, 64, 64]           --
│    └─AdaptiveAvgPool2d: 2-601          [4, 32, 2, 2]             --
│    └─Flatten: 2-602                    [4, 128]                  --
├─CNNModel: 1-87                         [4, 128]                  (recursive)
│    └─Conv2d: 2-603                     [4, 16, 128, 128]         (recursive)
│    └─BatchNorm2d: 2-604                [4, 16, 128, 128]         (recursive)
│    └─ReLU: 2-605                       [4, 16, 128, 128]         --
│    └─MaxPool2d: 2-606                  [4, 16, 64, 64]           --
│    └─Bottleneck: 2-607                 [4, 32, 64, 64]           (recursive)
│    │    └─Conv2d: 3-861                [4, 8, 64, 64]            (recursive)
│    │    └─BatchNorm2d: 3-862           [4, 8, 64, 64]            (recursive)
│    │    └─ReLU: 3-863                  [4, 8, 64, 64]            --
│    │    └─Conv2d: 3-864                [4, 8, 64, 64]            (recursive)
│    │    └─BatchNorm2d: 3-865           [4, 8, 64, 64]            (recursive)
│    │    └─ReLU: 3-866                  [4, 8, 64, 64]            --
│    │    └─Conv2d: 3-867                [4, 32, 64, 64]           (recursive)
│    │    └─BatchNorm2d: 3-868           [4, 32, 64, 64]           (recursive)
│    │    └─Sequential: 3-869            [4, 32, 64, 64]           (recursive)
│    │    └─ReLU: 3-870                  [4, 32, 64, 64]           --
│    └─AdaptiveAvgPool2d: 2-608          [4, 32, 2, 2]             --
│    └─Flatten: 2-609                    [4, 128]                  --
├─CNNModel: 1-88                         [4, 128]                  (recursive)
│    └─Conv2d: 2-610                     [4, 16, 128, 128]         (recursive)
│    └─BatchNorm2d: 2-611                [4, 16, 128, 128]         (recursive)
│    └─ReLU: 2-612                       [4, 16, 128, 128]         --
│    └─MaxPool2d: 2-613                  [4, 16, 64, 64]           --
│    └─Bottleneck: 2-614                 [4, 32, 64, 64]           (recursive)
│    │    └─Conv2d: 3-871                [4, 8, 64, 64]            (recursive)
│    │    └─BatchNorm2d: 3-872           [4, 8, 64, 64]            (recursive)
│    │    └─ReLU: 3-873                  [4, 8, 64, 64]            --
│    │    └─Conv2d: 3-874                [4, 8, 64, 64]            (recursive)
│    │    └─BatchNorm2d: 3-875           [4, 8, 64, 64]            (recursive)
│    │    └─ReLU: 3-876                  [4, 8, 64, 64]            --
│    │    └─Conv2d: 3-877                [4, 32, 64, 64]           (recursive)
│    │    └─BatchNorm2d: 3-878           [4, 32, 64, 64]           (recursive)
│    │    └─Sequential: 3-879            [4, 32, 64, 64]           (recursive)
│    │    └─ReLU: 3-880                  [4, 32, 64, 64]           --
│    └─AdaptiveAvgPool2d: 2-615          [4, 32, 2, 2]             --
│    └─Flatten: 2-616                    [4, 128]                  --
├─CNNModel: 1-89                         [4, 128]                  (recursive)
│    └─Conv2d: 2-617                     [4, 16, 128, 128]         (recursive)
│    └─BatchNorm2d: 2-618                [4, 16, 128, 128]         (recursive)
│    └─ReLU: 2-619                       [4, 16, 128, 128]         --
│    └─MaxPool2d: 2-620                  [4, 16, 64, 64]           --
│    └─Bottleneck: 2-621                 [4, 32, 64, 64]           (recursive)
│    │    └─Conv2d: 3-881                [4, 8, 64, 64]            (recursive)
│    │    └─BatchNorm2d: 3-882           [4, 8, 64, 64]            (recursive)
│    │    └─ReLU: 3-883                  [4, 8, 64, 64]            --
│    │    └─Conv2d: 3-884                [4, 8, 64, 64]            (recursive)
│    │    └─BatchNorm2d: 3-885           [4, 8, 64, 64]            (recursive)
│    │    └─ReLU: 3-886                  [4, 8, 64, 64]            --
│    │    └─Conv2d: 3-887                [4, 32, 64, 64]           (recursive)
│    │    └─BatchNorm2d: 3-888           [4, 32, 64, 64]           (recursive)
│    │    └─Sequential: 3-889            [4, 32, 64, 64]           (recursive)
│    │    └─ReLU: 3-890                  [4, 32, 64, 64]           --
│    └─AdaptiveAvgPool2d: 2-622          [4, 32, 2, 2]             --
│    └─Flatten: 2-623                    [4, 128]                  --
├─CNNModel: 1-90                         [4, 128]                  (recursive)
│    └─Conv2d: 2-624                     [4, 16, 128, 128]         (recursive)
│    └─BatchNorm2d: 2-625                [4, 16, 128, 128]         (recursive)
│    └─ReLU: 2-626                       [4, 16, 128, 128]         --
│    └─MaxPool2d: 2-627                  [4, 16, 64, 64]           --
│    └─Bottleneck: 2-628                 [4, 32, 64, 64]           (recursive)
│    │    └─Conv2d: 3-891                [4, 8, 64, 64]            (recursive)
│    │    └─BatchNorm2d: 3-892           [4, 8, 64, 64]            (recursive)
│    │    └─ReLU: 3-893                  [4, 8, 64, 64]            --
│    │    └─Conv2d: 3-894                [4, 8, 64, 64]            (recursive)
│    │    └─BatchNorm2d: 3-895           [4, 8, 64, 64]            (recursive)
│    │    └─ReLU: 3-896                  [4, 8, 64, 64]            --
│    │    └─Conv2d: 3-897                [4, 32, 64, 64]           (recursive)
│    │    └─BatchNorm2d: 3-898           [4, 32, 64, 64]           (recursive)
│    │    └─Sequential: 3-899            [4, 32, 64, 64]           (recursive)
│    │    └─ReLU: 3-900                  [4, 32, 64, 64]           --
│    └─AdaptiveAvgPool2d: 2-629          [4, 32, 2, 2]             --
│    └─Flatten: 2-630                    [4, 128]                  --
├─CNNModel: 1-91                         [4, 128]                  (recursive)
│    └─Conv2d: 2-631                     [4, 16, 128, 128]         (recursive)
│    └─BatchNorm2d: 2-632                [4, 16, 128, 128]         (recursive)
│    └─ReLU: 2-633                       [4, 16, 128, 128]         --
│    └─MaxPool2d: 2-634                  [4, 16, 64, 64]           --
│    └─Bottleneck: 2-635                 [4, 32, 64, 64]           (recursive)
│    │    └─Conv2d: 3-901                [4, 8, 64, 64]            (recursive)
│    │    └─BatchNorm2d: 3-902           [4, 8, 64, 64]            (recursive)
│    │    └─ReLU: 3-903                  [4, 8, 64, 64]            --
│    │    └─Conv2d: 3-904                [4, 8, 64, 64]            (recursive)
│    │    └─BatchNorm2d: 3-905           [4, 8, 64, 64]            (recursive)
│    │    └─ReLU: 3-906                  [4, 8, 64, 64]            --
│    │    └─Conv2d: 3-907                [4, 32, 64, 64]           (recursive)
│    │    └─BatchNorm2d: 3-908           [4, 32, 64, 64]           (recursive)
│    │    └─Sequential: 3-909            [4, 32, 64, 64]           (recursive)
│    │    └─ReLU: 3-910                  [4, 32, 64, 64]           --
│    └─AdaptiveAvgPool2d: 2-636          [4, 32, 2, 2]             --
│    └─Flatten: 2-637                    [4, 128]                  --
├─CNNModel: 1-92                         [4, 128]                  (recursive)
│    └─Conv2d: 2-638                     [4, 16, 128, 128]         (recursive)
│    └─BatchNorm2d: 2-639                [4, 16, 128, 128]         (recursive)
│    └─ReLU: 2-640                       [4, 16, 128, 128]         --
│    └─MaxPool2d: 2-641                  [4, 16, 64, 64]           --
│    └─Bottleneck: 2-642                 [4, 32, 64, 64]           (recursive)
│    │    └─Conv2d: 3-911                [4, 8, 64, 64]            (recursive)
│    │    └─BatchNorm2d: 3-912           [4, 8, 64, 64]            (recursive)
│    │    └─ReLU: 3-913                  [4, 8, 64, 64]            --
│    │    └─Conv2d: 3-914                [4, 8, 64, 64]            (recursive)
│    │    └─BatchNorm2d: 3-915           [4, 8, 64, 64]            (recursive)
│    │    └─ReLU: 3-916                  [4, 8, 64, 64]            --
│    │    └─Conv2d: 3-917                [4, 32, 64, 64]           (recursive)
│    │    └─BatchNorm2d: 3-918           [4, 32, 64, 64]           (recursive)
│    │    └─Sequential: 3-919            [4, 32, 64, 64]           (recursive)
│    │    └─ReLU: 3-920                  [4, 32, 64, 64]           --
│    └─AdaptiveAvgPool2d: 2-643          [4, 32, 2, 2]             --
│    └─Flatten: 2-644                    [4, 128]                  --
├─CNNModel: 1-93                         [4, 128]                  (recursive)
│    └─Conv2d: 2-645                     [4, 16, 128, 128]         (recursive)
│    └─BatchNorm2d: 2-646                [4, 16, 128, 128]         (recursive)
│    └─ReLU: 2-647                       [4, 16, 128, 128]         --
│    └─MaxPool2d: 2-648                  [4, 16, 64, 64]           --
│    └─Bottleneck: 2-649                 [4, 32, 64, 64]           (recursive)
│    │    └─Conv2d: 3-921                [4, 8, 64, 64]            (recursive)
│    │    └─BatchNorm2d: 3-922           [4, 8, 64, 64]            (recursive)
│    │    └─ReLU: 3-923                  [4, 8, 64, 64]            --
│    │    └─Conv2d: 3-924                [4, 8, 64, 64]            (recursive)
│    │    └─BatchNorm2d: 3-925           [4, 8, 64, 64]            (recursive)
│    │    └─ReLU: 3-926                  [4, 8, 64, 64]            --
│    │    └─Conv2d: 3-927                [4, 32, 64, 64]           (recursive)
│    │    └─BatchNorm2d: 3-928           [4, 32, 64, 64]           (recursive)
│    │    └─Sequential: 3-929            [4, 32, 64, 64]           (recursive)
│    │    └─ReLU: 3-930                  [4, 32, 64, 64]           --
│    └─AdaptiveAvgPool2d: 2-650          [4, 32, 2, 2]             --
│    └─Flatten: 2-651                    [4, 128]                  --
├─CNNModel: 1-94                         [4, 128]                  (recursive)
│    └─Conv2d: 2-652                     [4, 16, 128, 128]         (recursive)
│    └─BatchNorm2d: 2-653                [4, 16, 128, 128]         (recursive)
│    └─ReLU: 2-654                       [4, 16, 128, 128]         --
│    └─MaxPool2d: 2-655                  [4, 16, 64, 64]           --
│    └─Bottleneck: 2-656                 [4, 32, 64, 64]           (recursive)
│    │    └─Conv2d: 3-931                [4, 8, 64, 64]            (recursive)
│    │    └─BatchNorm2d: 3-932           [4, 8, 64, 64]            (recursive)
│    │    └─ReLU: 3-933                  [4, 8, 64, 64]            --
│    │    └─Conv2d: 3-934                [4, 8, 64, 64]            (recursive)
│    │    └─BatchNorm2d: 3-935           [4, 8, 64, 64]            (recursive)
│    │    └─ReLU: 3-936                  [4, 8, 64, 64]            --
│    │    └─Conv2d: 3-937                [4, 32, 64, 64]           (recursive)
│    │    └─BatchNorm2d: 3-938           [4, 32, 64, 64]           (recursive)
│    │    └─Sequential: 3-939            [4, 32, 64, 64]           (recursive)
│    │    └─ReLU: 3-940                  [4, 32, 64, 64]           --
│    └─AdaptiveAvgPool2d: 2-657          [4, 32, 2, 2]             --
│    └─Flatten: 2-658                    [4, 128]                  --
├─CNNModel: 1-95                         [4, 128]                  (recursive)
│    └─Conv2d: 2-659                     [4, 16, 128, 128]         (recursive)
│    └─BatchNorm2d: 2-660                [4, 16, 128, 128]         (recursive)
│    └─ReLU: 2-661                       [4, 16, 128, 128]         --
│    └─MaxPool2d: 2-662                  [4, 16, 64, 64]           --
│    └─Bottleneck: 2-663                 [4, 32, 64, 64]           (recursive)
│    │    └─Conv2d: 3-941                [4, 8, 64, 64]            (recursive)
│    │    └─BatchNorm2d: 3-942           [4, 8, 64, 64]            (recursive)
│    │    └─ReLU: 3-943                  [4, 8, 64, 64]            --
│    │    └─Conv2d: 3-944                [4, 8, 64, 64]            (recursive)
│    │    └─BatchNorm2d: 3-945           [4, 8, 64, 64]            (recursive)
│    │    └─ReLU: 3-946                  [4, 8, 64, 64]            --
│    │    └─Conv2d: 3-947                [4, 32, 64, 64]           (recursive)
│    │    └─BatchNorm2d: 3-948           [4, 32, 64, 64]           (recursive)
│    │    └─Sequential: 3-949            [4, 32, 64, 64]           (recursive)
│    │    └─ReLU: 3-950                  [4, 32, 64, 64]           --
│    └─AdaptiveAvgPool2d: 2-664          [4, 32, 2, 2]             --
│    └─Flatten: 2-665                    [4, 128]                  --
├─CNNModel: 1-96                         [4, 128]                  (recursive)
│    └─Conv2d: 2-666                     [4, 16, 128, 128]         (recursive)
│    └─BatchNorm2d: 2-667                [4, 16, 128, 128]         (recursive)
│    └─ReLU: 2-668                       [4, 16, 128, 128]         --
│    └─MaxPool2d: 2-669                  [4, 16, 64, 64]           --
│    └─Bottleneck: 2-670                 [4, 32, 64, 64]           (recursive)
│    │    └─Conv2d: 3-951                [4, 8, 64, 64]            (recursive)
│    │    └─BatchNorm2d: 3-952           [4, 8, 64, 64]            (recursive)
│    │    └─ReLU: 3-953                  [4, 8, 64, 64]            --
│    │    └─Conv2d: 3-954                [4, 8, 64, 64]            (recursive)
│    │    └─BatchNorm2d: 3-955           [4, 8, 64, 64]            (recursive)
│    │    └─ReLU: 3-956                  [4, 8, 64, 64]            --
│    │    └─Conv2d: 3-957                [4, 32, 64, 64]           (recursive)
│    │    └─BatchNorm2d: 3-958           [4, 32, 64, 64]           (recursive)
│    │    └─Sequential: 3-959            [4, 32, 64, 64]           (recursive)
│    │    └─ReLU: 3-960                  [4, 32, 64, 64]           --
│    └─AdaptiveAvgPool2d: 2-671          [4, 32, 2, 2]             --
│    └─Flatten: 2-672                    [4, 128]                  --
├─CNNModel: 1-97                         [4, 128]                  (recursive)
│    └─Conv2d: 2-673                     [4, 16, 128, 128]         (recursive)
│    └─BatchNorm2d: 2-674                [4, 16, 128, 128]         (recursive)
│    └─ReLU: 2-675                       [4, 16, 128, 128]         --
│    └─MaxPool2d: 2-676                  [4, 16, 64, 64]           --
│    └─Bottleneck: 2-677                 [4, 32, 64, 64]           (recursive)
│    │    └─Conv2d: 3-961                [4, 8, 64, 64]            (recursive)
│    │    └─BatchNorm2d: 3-962           [4, 8, 64, 64]            (recursive)
│    │    └─ReLU: 3-963                  [4, 8, 64, 64]            --
│    │    └─Conv2d: 3-964                [4, 8, 64, 64]            (recursive)
│    │    └─BatchNorm2d: 3-965           [4, 8, 64, 64]            (recursive)
│    │    └─ReLU: 3-966                  [4, 8, 64, 64]            --
│    │    └─Conv2d: 3-967                [4, 32, 64, 64]           (recursive)
│    │    └─BatchNorm2d: 3-968           [4, 32, 64, 64]           (recursive)
│    │    └─Sequential: 3-969            [4, 32, 64, 64]           (recursive)
│    │    └─ReLU: 3-970                  [4, 32, 64, 64]           --
│    └─AdaptiveAvgPool2d: 2-678          [4, 32, 2, 2]             --
│    └─Flatten: 2-679                    [4, 128]                  --
├─CNNModel: 1-98                         [4, 128]                  (recursive)
│    └─Conv2d: 2-680                     [4, 16, 128, 128]         (recursive)
│    └─BatchNorm2d: 2-681                [4, 16, 128, 128]         (recursive)
│    └─ReLU: 2-682                       [4, 16, 128, 128]         --
│    └─MaxPool2d: 2-683                  [4, 16, 64, 64]           --
│    └─Bottleneck: 2-684                 [4, 32, 64, 64]           (recursive)
│    │    └─Conv2d: 3-971                [4, 8, 64, 64]            (recursive)
│    │    └─BatchNorm2d: 3-972           [4, 8, 64, 64]            (recursive)
│    │    └─ReLU: 3-973                  [4, 8, 64, 64]            --
│    │    └─Conv2d: 3-974                [4, 8, 64, 64]            (recursive)
│    │    └─BatchNorm2d: 3-975           [4, 8, 64, 64]            (recursive)
│    │    └─ReLU: 3-976                  [4, 8, 64, 64]            --
│    │    └─Conv2d: 3-977                [4, 32, 64, 64]           (recursive)
│    │    └─BatchNorm2d: 3-978           [4, 32, 64, 64]           (recursive)
│    │    └─Sequential: 3-979            [4, 32, 64, 64]           (recursive)
│    │    └─ReLU: 3-980                  [4, 32, 64, 64]           --
│    └─AdaptiveAvgPool2d: 2-685          [4, 32, 2, 2]             --
│    └─Flatten: 2-686                    [4, 128]                  --
├─CNNModel: 1-99                         [4, 128]                  (recursive)
│    └─Conv2d: 2-687                     [4, 16, 128, 128]         (recursive)
│    └─BatchNorm2d: 2-688                [4, 16, 128, 128]         (recursive)
│    └─ReLU: 2-689                       [4, 16, 128, 128]         --
│    └─MaxPool2d: 2-690                  [4, 16, 64, 64]           --
│    └─Bottleneck: 2-691                 [4, 32, 64, 64]           (recursive)
│    │    └─Conv2d: 3-981                [4, 8, 64, 64]            (recursive)
│    │    └─BatchNorm2d: 3-982           [4, 8, 64, 64]            (recursive)
│    │    └─ReLU: 3-983                  [4, 8, 64, 64]            --
│    │    └─Conv2d: 3-984                [4, 8, 64, 64]            (recursive)
│    │    └─BatchNorm2d: 3-985           [4, 8, 64, 64]            (recursive)
│    │    └─ReLU: 3-986                  [4, 8, 64, 64]            --
│    │    └─Conv2d: 3-987                [4, 32, 64, 64]           (recursive)
│    │    └─BatchNorm2d: 3-988           [4, 32, 64, 64]           (recursive)
│    │    └─Sequential: 3-989            [4, 32, 64, 64]           (recursive)
│    │    └─ReLU: 3-990                  [4, 32, 64, 64]           --
│    └─AdaptiveAvgPool2d: 2-692          [4, 32, 2, 2]             --
│    └─Flatten: 2-693                    [4, 128]                  --
├─CNNModel: 1-100                        [4, 128]                  (recursive)
│    └─Conv2d: 2-694                     [4, 16, 128, 128]         (recursive)
│    └─BatchNorm2d: 2-695                [4, 16, 128, 128]         (recursive)
│    └─ReLU: 2-696                       [4, 16, 128, 128]         --
│    └─MaxPool2d: 2-697                  [4, 16, 64, 64]           --
│    └─Bottleneck: 2-698                 [4, 32, 64, 64]           (recursive)
│    │    └─Conv2d: 3-991                [4, 8, 64, 64]            (recursive)
│    │    └─BatchNorm2d: 3-992           [4, 8, 64, 64]            (recursive)
│    │    └─ReLU: 3-993                  [4, 8, 64, 64]            --
│    │    └─Conv2d: 3-994                [4, 8, 64, 64]            (recursive)
│    │    └─BatchNorm2d: 3-995           [4, 8, 64, 64]            (recursive)
│    │    └─ReLU: 3-996                  [4, 8, 64, 64]            --
│    │    └─Conv2d: 3-997                [4, 32, 64, 64]           (recursive)
│    │    └─BatchNorm2d: 3-998           [4, 32, 64, 64]           (recursive)
│    │    └─Sequential: 3-999            [4, 32, 64, 64]           (recursive)
│    │    └─ReLU: 3-1000                 [4, 32, 64, 64]           --
│    └─AdaptiveAvgPool2d: 2-699          [4, 32, 2, 2]             --
│    └─Flatten: 2-700                    [4, 128]                  --
├─CNNModel: 1-101                        [4, 128]                  (recursive)
│    └─Conv2d: 2-701                     [4, 16, 128, 128]         (recursive)
│    └─BatchNorm2d: 2-702                [4, 16, 128, 128]         (recursive)
│    └─ReLU: 2-703                       [4, 16, 128, 128]         --
│    └─MaxPool2d: 2-704                  [4, 16, 64, 64]           --
│    └─Bottleneck: 2-705                 [4, 32, 64, 64]           (recursive)
│    │    └─Conv2d: 3-1001               [4, 8, 64, 64]            (recursive)
│    │    └─BatchNorm2d: 3-1002          [4, 8, 64, 64]            (recursive)
│    │    └─ReLU: 3-1003                 [4, 8, 64, 64]            --
│    │    └─Conv2d: 3-1004               [4, 8, 64, 64]            (recursive)
│    │    └─BatchNorm2d: 3-1005          [4, 8, 64, 64]            (recursive)
│    │    └─ReLU: 3-1006                 [4, 8, 64, 64]            --
│    │    └─Conv2d: 3-1007               [4, 32, 64, 64]           (recursive)
│    │    └─BatchNorm2d: 3-1008          [4, 32, 64, 64]           (recursive)
│    │    └─Sequential: 3-1009           [4, 32, 64, 64]           (recursive)
│    │    └─ReLU: 3-1010                 [4, 32, 64, 64]           --
│    └─AdaptiveAvgPool2d: 2-706          [4, 32, 2, 2]             --
│    └─Flatten: 2-707                    [4, 128]                  --
├─CNNModel: 1-102                        [4, 128]                  (recursive)
│    └─Conv2d: 2-708                     [4, 16, 128, 128]         (recursive)
│    └─BatchNorm2d: 2-709                [4, 16, 128, 128]         (recursive)
│    └─ReLU: 2-710                       [4, 16, 128, 128]         --
│    └─MaxPool2d: 2-711                  [4, 16, 64, 64]           --
│    └─Bottleneck: 2-712                 [4, 32, 64, 64]           (recursive)
│    │    └─Conv2d: 3-1011               [4, 8, 64, 64]            (recursive)
│    │    └─BatchNorm2d: 3-1012          [4, 8, 64, 64]            (recursive)
│    │    └─ReLU: 3-1013                 [4, 8, 64, 64]            --
│    │    └─Conv2d: 3-1014               [4, 8, 64, 64]            (recursive)
│    │    └─BatchNorm2d: 3-1015          [4, 8, 64, 64]            (recursive)
│    │    └─ReLU: 3-1016                 [4, 8, 64, 64]            --
│    │    └─Conv2d: 3-1017               [4, 32, 64, 64]           (recursive)
│    │    └─BatchNorm2d: 3-1018          [4, 32, 64, 64]           (recursive)
│    │    └─Sequential: 3-1019           [4, 32, 64, 64]           (recursive)
│    │    └─ReLU: 3-1020                 [4, 32, 64, 64]           --
│    └─AdaptiveAvgPool2d: 2-713          [4, 32, 2, 2]             --
│    └─Flatten: 2-714                    [4, 128]                  --
├─CNNModel: 1-103                        [4, 128]                  (recursive)
│    └─Conv2d: 2-715                     [4, 16, 128, 128]         (recursive)
│    └─BatchNorm2d: 2-716                [4, 16, 128, 128]         (recursive)
│    └─ReLU: 2-717                       [4, 16, 128, 128]         --
│    └─MaxPool2d: 2-718                  [4, 16, 64, 64]           --
│    └─Bottleneck: 2-719                 [4, 32, 64, 64]           (recursive)
│    │    └─Conv2d: 3-1021               [4, 8, 64, 64]            (recursive)
│    │    └─BatchNorm2d: 3-1022          [4, 8, 64, 64]            (recursive)
│    │    └─ReLU: 3-1023                 [4, 8, 64, 64]            --
│    │    └─Conv2d: 3-1024               [4, 8, 64, 64]            (recursive)
│    │    └─BatchNorm2d: 3-1025          [4, 8, 64, 64]            (recursive)
│    │    └─ReLU: 3-1026                 [4, 8, 64, 64]            --
│    │    └─Conv2d: 3-1027               [4, 32, 64, 64]           (recursive)
│    │    └─BatchNorm2d: 3-1028          [4, 32, 64, 64]           (recursive)
│    │    └─Sequential: 3-1029           [4, 32, 64, 64]           (recursive)
│    │    └─ReLU: 3-1030                 [4, 32, 64, 64]           --
│    └─AdaptiveAvgPool2d: 2-720          [4, 32, 2, 2]             --
│    └─Flatten: 2-721                    [4, 128]                  --
├─CNNModel: 1-104                        [4, 128]                  (recursive)
│    └─Conv2d: 2-722                     [4, 16, 128, 128]         (recursive)
│    └─BatchNorm2d: 2-723                [4, 16, 128, 128]         (recursive)
│    └─ReLU: 2-724                       [4, 16, 128, 128]         --
│    └─MaxPool2d: 2-725                  [4, 16, 64, 64]           --
│    └─Bottleneck: 2-726                 [4, 32, 64, 64]           (recursive)
│    │    └─Conv2d: 3-1031               [4, 8, 64, 64]            (recursive)
│    │    └─BatchNorm2d: 3-1032          [4, 8, 64, 64]            (recursive)
│    │    └─ReLU: 3-1033                 [4, 8, 64, 64]            --
│    │    └─Conv2d: 3-1034               [4, 8, 64, 64]            (recursive)
│    │    └─BatchNorm2d: 3-1035          [4, 8, 64, 64]            (recursive)
│    │    └─ReLU: 3-1036                 [4, 8, 64, 64]            --
│    │    └─Conv2d: 3-1037               [4, 32, 64, 64]           (recursive)
│    │    └─BatchNorm2d: 3-1038          [4, 32, 64, 64]           (recursive)
│    │    └─Sequential: 3-1039           [4, 32, 64, 64]           (recursive)
│    │    └─ReLU: 3-1040                 [4, 32, 64, 64]           --
│    └─AdaptiveAvgPool2d: 2-727          [4, 32, 2, 2]             --
│    └─Flatten: 2-728                    [4, 128]                  --
├─CNNModel: 1-105                        [4, 128]                  (recursive)
│    └─Conv2d: 2-729                     [4, 16, 128, 128]         (recursive)
│    └─BatchNorm2d: 2-730                [4, 16, 128, 128]         (recursive)
│    └─ReLU: 2-731                       [4, 16, 128, 128]         --
│    └─MaxPool2d: 2-732                  [4, 16, 64, 64]           --
│    └─Bottleneck: 2-733                 [4, 32, 64, 64]           (recursive)
│    │    └─Conv2d: 3-1041               [4, 8, 64, 64]            (recursive)
│    │    └─BatchNorm2d: 3-1042          [4, 8, 64, 64]            (recursive)
│    │    └─ReLU: 3-1043                 [4, 8, 64, 64]            --
│    │    └─Conv2d: 3-1044               [4, 8, 64, 64]            (recursive)
│    │    └─BatchNorm2d: 3-1045          [4, 8, 64, 64]            (recursive)
│    │    └─ReLU: 3-1046                 [4, 8, 64, 64]            --
│    │    └─Conv2d: 3-1047               [4, 32, 64, 64]           (recursive)
│    │    └─BatchNorm2d: 3-1048          [4, 32, 64, 64]           (recursive)
│    │    └─Sequential: 3-1049           [4, 32, 64, 64]           (recursive)
│    │    └─ReLU: 3-1050                 [4, 32, 64, 64]           --
│    └─AdaptiveAvgPool2d: 2-734          [4, 32, 2, 2]             --
│    └─Flatten: 2-735                    [4, 128]                  --
├─CNNModel: 1-106                        [4, 128]                  (recursive)
│    └─Conv2d: 2-736                     [4, 16, 128, 128]         (recursive)
│    └─BatchNorm2d: 2-737                [4, 16, 128, 128]         (recursive)
│    └─ReLU: 2-738                       [4, 16, 128, 128]         --
│    └─MaxPool2d: 2-739                  [4, 16, 64, 64]           --
│    └─Bottleneck: 2-740                 [4, 32, 64, 64]           (recursive)
│    │    └─Conv2d: 3-1051               [4, 8, 64, 64]            (recursive)
│    │    └─BatchNorm2d: 3-1052          [4, 8, 64, 64]            (recursive)
│    │    └─ReLU: 3-1053                 [4, 8, 64, 64]            --
│    │    └─Conv2d: 3-1054               [4, 8, 64, 64]            (recursive)
│    │    └─BatchNorm2d: 3-1055          [4, 8, 64, 64]            (recursive)
│    │    └─ReLU: 3-1056                 [4, 8, 64, 64]            --
│    │    └─Conv2d: 3-1057               [4, 32, 64, 64]           (recursive)
│    │    └─BatchNorm2d: 3-1058          [4, 32, 64, 64]           (recursive)
│    │    └─Sequential: 3-1059           [4, 32, 64, 64]           (recursive)
│    │    └─ReLU: 3-1060                 [4, 32, 64, 64]           --
│    └─AdaptiveAvgPool2d: 2-741          [4, 32, 2, 2]             --
│    └─Flatten: 2-742                    [4, 128]                  --
├─CNNModel: 1-107                        [4, 128]                  (recursive)
│    └─Conv2d: 2-743                     [4, 16, 128, 128]         (recursive)
│    └─BatchNorm2d: 2-744                [4, 16, 128, 128]         (recursive)
│    └─ReLU: 2-745                       [4, 16, 128, 128]         --
│    └─MaxPool2d: 2-746                  [4, 16, 64, 64]           --
│    └─Bottleneck: 2-747                 [4, 32, 64, 64]           (recursive)
│    │    └─Conv2d: 3-1061               [4, 8, 64, 64]            (recursive)
│    │    └─BatchNorm2d: 3-1062          [4, 8, 64, 64]            (recursive)
│    │    └─ReLU: 3-1063                 [4, 8, 64, 64]            --
│    │    └─Conv2d: 3-1064               [4, 8, 64, 64]            (recursive)
│    │    └─BatchNorm2d: 3-1065          [4, 8, 64, 64]            (recursive)
│    │    └─ReLU: 3-1066                 [4, 8, 64, 64]            --
│    │    └─Conv2d: 3-1067               [4, 32, 64, 64]           (recursive)
│    │    └─BatchNorm2d: 3-1068          [4, 32, 64, 64]           (recursive)
│    │    └─Sequential: 3-1069           [4, 32, 64, 64]           (recursive)
│    │    └─ReLU: 3-1070                 [4, 32, 64, 64]           --
│    └─AdaptiveAvgPool2d: 2-748          [4, 32, 2, 2]             --
│    └─Flatten: 2-749                    [4, 128]                  --
├─CNNModel: 1-108                        [4, 128]                  (recursive)
│    └─Conv2d: 2-750                     [4, 16, 128, 128]         (recursive)
│    └─BatchNorm2d: 2-751                [4, 16, 128, 128]         (recursive)
│    └─ReLU: 2-752                       [4, 16, 128, 128]         --
│    └─MaxPool2d: 2-753                  [4, 16, 64, 64]           --
│    └─Bottleneck: 2-754                 [4, 32, 64, 64]           (recursive)
│    │    └─Conv2d: 3-1071               [4, 8, 64, 64]            (recursive)
│    │    └─BatchNorm2d: 3-1072          [4, 8, 64, 64]            (recursive)
│    │    └─ReLU: 3-1073                 [4, 8, 64, 64]            --
│    │    └─Conv2d: 3-1074               [4, 8, 64, 64]            (recursive)
│    │    └─BatchNorm2d: 3-1075          [4, 8, 64, 64]            (recursive)
│    │    └─ReLU: 3-1076                 [4, 8, 64, 64]            --
│    │    └─Conv2d: 3-1077               [4, 32, 64, 64]           (recursive)
│    │    └─BatchNorm2d: 3-1078          [4, 32, 64, 64]           (recursive)
│    │    └─Sequential: 3-1079           [4, 32, 64, 64]           (recursive)
│    │    └─ReLU: 3-1080                 [4, 32, 64, 64]           --
│    └─AdaptiveAvgPool2d: 2-755          [4, 32, 2, 2]             --
│    └─Flatten: 2-756                    [4, 128]                  --
├─CNNModel: 1-109                        [4, 128]                  (recursive)
│    └─Conv2d: 2-757                     [4, 16, 128, 128]         (recursive)
│    └─BatchNorm2d: 2-758                [4, 16, 128, 128]         (recursive)
│    └─ReLU: 2-759                       [4, 16, 128, 128]         --
│    └─MaxPool2d: 2-760                  [4, 16, 64, 64]           --
│    └─Bottleneck: 2-761                 [4, 32, 64, 64]           (recursive)
│    │    └─Conv2d: 3-1081               [4, 8, 64, 64]            (recursive)
│    │    └─BatchNorm2d: 3-1082          [4, 8, 64, 64]            (recursive)
│    │    └─ReLU: 3-1083                 [4, 8, 64, 64]            --
│    │    └─Conv2d: 3-1084               [4, 8, 64, 64]            (recursive)
│    │    └─BatchNorm2d: 3-1085          [4, 8, 64, 64]            (recursive)
│    │    └─ReLU: 3-1086                 [4, 8, 64, 64]            --
│    │    └─Conv2d: 3-1087               [4, 32, 64, 64]           (recursive)
│    │    └─BatchNorm2d: 3-1088          [4, 32, 64, 64]           (recursive)
│    │    └─Sequential: 3-1089           [4, 32, 64, 64]           (recursive)
│    │    └─ReLU: 3-1090                 [4, 32, 64, 64]           --
│    └─AdaptiveAvgPool2d: 2-762          [4, 32, 2, 2]             --
│    └─Flatten: 2-763                    [4, 128]                  --
├─CNNModel: 1-110                        [4, 128]                  (recursive)
│    └─Conv2d: 2-764                     [4, 16, 128, 128]         (recursive)
│    └─BatchNorm2d: 2-765                [4, 16, 128, 128]         (recursive)
│    └─ReLU: 2-766                       [4, 16, 128, 128]         --
│    └─MaxPool2d: 2-767                  [4, 16, 64, 64]           --
│    └─Bottleneck: 2-768                 [4, 32, 64, 64]           (recursive)
│    │    └─Conv2d: 3-1091               [4, 8, 64, 64]            (recursive)
│    │    └─BatchNorm2d: 3-1092          [4, 8, 64, 64]            (recursive)
│    │    └─ReLU: 3-1093                 [4, 8, 64, 64]            --
│    │    └─Conv2d: 3-1094               [4, 8, 64, 64]            (recursive)
│    │    └─BatchNorm2d: 3-1095          [4, 8, 64, 64]            (recursive)
│    │    └─ReLU: 3-1096                 [4, 8, 64, 64]            --
│    │    └─Conv2d: 3-1097               [4, 32, 64, 64]           (recursive)
│    │    └─BatchNorm2d: 3-1098          [4, 32, 64, 64]           (recursive)
│    │    └─Sequential: 3-1099           [4, 32, 64, 64]           (recursive)
│    │    └─ReLU: 3-1100                 [4, 32, 64, 64]           --
│    └─AdaptiveAvgPool2d: 2-769          [4, 32, 2, 2]             --
│    └─Flatten: 2-770                    [4, 128]                  --
├─CNNModel: 1-111                        [4, 128]                  (recursive)
│    └─Conv2d: 2-771                     [4, 16, 128, 128]         (recursive)
│    └─BatchNorm2d: 2-772                [4, 16, 128, 128]         (recursive)
│    └─ReLU: 2-773                       [4, 16, 128, 128]         --
│    └─MaxPool2d: 2-774                  [4, 16, 64, 64]           --
│    └─Bottleneck: 2-775                 [4, 32, 64, 64]           (recursive)
│    │    └─Conv2d: 3-1101               [4, 8, 64, 64]            (recursive)
│    │    └─BatchNorm2d: 3-1102          [4, 8, 64, 64]            (recursive)
│    │    └─ReLU: 3-1103                 [4, 8, 64, 64]            --
│    │    └─Conv2d: 3-1104               [4, 8, 64, 64]            (recursive)
│    │    └─BatchNorm2d: 3-1105          [4, 8, 64, 64]            (recursive)
│    │    └─ReLU: 3-1106                 [4, 8, 64, 64]            --
│    │    └─Conv2d: 3-1107               [4, 32, 64, 64]           (recursive)
│    │    └─BatchNorm2d: 3-1108          [4, 32, 64, 64]           (recursive)
│    │    └─Sequential: 3-1109           [4, 32, 64, 64]           (recursive)
│    │    └─ReLU: 3-1110                 [4, 32, 64, 64]           --
│    └─AdaptiveAvgPool2d: 2-776          [4, 32, 2, 2]             --
│    └─Flatten: 2-777                    [4, 128]                  --
├─CNNModel: 1-112                        [4, 128]                  (recursive)
│    └─Conv2d: 2-778                     [4, 16, 128, 128]         (recursive)
│    └─BatchNorm2d: 2-779                [4, 16, 128, 128]         (recursive)
│    └─ReLU: 2-780                       [4, 16, 128, 128]         --
│    └─MaxPool2d: 2-781                  [4, 16, 64, 64]           --
│    └─Bottleneck: 2-782                 [4, 32, 64, 64]           (recursive)
│    │    └─Conv2d: 3-1111               [4, 8, 64, 64]            (recursive)
│    │    └─BatchNorm2d: 3-1112          [4, 8, 64, 64]            (recursive)
│    │    └─ReLU: 3-1113                 [4, 8, 64, 64]            --
│    │    └─Conv2d: 3-1114               [4, 8, 64, 64]            (recursive)
│    │    └─BatchNorm2d: 3-1115          [4, 8, 64, 64]            (recursive)
│    │    └─ReLU: 3-1116                 [4, 8, 64, 64]            --
│    │    └─Conv2d: 3-1117               [4, 32, 64, 64]           (recursive)
│    │    └─BatchNorm2d: 3-1118          [4, 32, 64, 64]           (recursive)
│    │    └─Sequential: 3-1119           [4, 32, 64, 64]           (recursive)
│    │    └─ReLU: 3-1120                 [4, 32, 64, 64]           --
│    └─AdaptiveAvgPool2d: 2-783          [4, 32, 2, 2]             --
│    └─Flatten: 2-784                    [4, 128]                  --
├─CNNModel: 1-113                        [4, 128]                  (recursive)
│    └─Conv2d: 2-785                     [4, 16, 128, 128]         (recursive)
│    └─BatchNorm2d: 2-786                [4, 16, 128, 128]         (recursive)
│    └─ReLU: 2-787                       [4, 16, 128, 128]         --
│    └─MaxPool2d: 2-788                  [4, 16, 64, 64]           --
│    └─Bottleneck: 2-789                 [4, 32, 64, 64]           (recursive)
│    │    └─Conv2d: 3-1121               [4, 8, 64, 64]            (recursive)
│    │    └─BatchNorm2d: 3-1122          [4, 8, 64, 64]            (recursive)
│    │    └─ReLU: 3-1123                 [4, 8, 64, 64]            --
│    │    └─Conv2d: 3-1124               [4, 8, 64, 64]            (recursive)
│    │    └─BatchNorm2d: 3-1125          [4, 8, 64, 64]            (recursive)
│    │    └─ReLU: 3-1126                 [4, 8, 64, 64]            --
│    │    └─Conv2d: 3-1127               [4, 32, 64, 64]           (recursive)
│    │    └─BatchNorm2d: 3-1128          [4, 32, 64, 64]           (recursive)
│    │    └─Sequential: 3-1129           [4, 32, 64, 64]           (recursive)
│    │    └─ReLU: 3-1130                 [4, 32, 64, 64]           --
│    └─AdaptiveAvgPool2d: 2-790          [4, 32, 2, 2]             --
│    └─Flatten: 2-791                    [4, 128]                  --
├─CNNModel: 1-114                        [4, 128]                  (recursive)
│    └─Conv2d: 2-792                     [4, 16, 128, 128]         (recursive)
│    └─BatchNorm2d: 2-793                [4, 16, 128, 128]         (recursive)
│    └─ReLU: 2-794                       [4, 16, 128, 128]         --
│    └─MaxPool2d: 2-795                  [4, 16, 64, 64]           --
│    └─Bottleneck: 2-796                 [4, 32, 64, 64]           (recursive)
│    │    └─Conv2d: 3-1131               [4, 8, 64, 64]            (recursive)
│    │    └─BatchNorm2d: 3-1132          [4, 8, 64, 64]            (recursive)
│    │    └─ReLU: 3-1133                 [4, 8, 64, 64]            --
│    │    └─Conv2d: 3-1134               [4, 8, 64, 64]            (recursive)
│    │    └─BatchNorm2d: 3-1135          [4, 8, 64, 64]            (recursive)
│    │    └─ReLU: 3-1136                 [4, 8, 64, 64]            --
│    │    └─Conv2d: 3-1137               [4, 32, 64, 64]           (recursive)
│    │    └─BatchNorm2d: 3-1138          [4, 32, 64, 64]           (recursive)
│    │    └─Sequential: 3-1139           [4, 32, 64, 64]           (recursive)
│    │    └─ReLU: 3-1140                 [4, 32, 64, 64]           --
│    └─AdaptiveAvgPool2d: 2-797          [4, 32, 2, 2]             --
│    └─Flatten: 2-798                    [4, 128]                  --
├─CNNModel: 1-115                        [4, 128]                  (recursive)
│    └─Conv2d: 2-799                     [4, 16, 128, 128]         (recursive)
│    └─BatchNorm2d: 2-800                [4, 16, 128, 128]         (recursive)
│    └─ReLU: 2-801                       [4, 16, 128, 128]         --
│    └─MaxPool2d: 2-802                  [4, 16, 64, 64]           --
│    └─Bottleneck: 2-803                 [4, 32, 64, 64]           (recursive)
│    │    └─Conv2d: 3-1141               [4, 8, 64, 64]            (recursive)
│    │    └─BatchNorm2d: 3-1142          [4, 8, 64, 64]            (recursive)
│    │    └─ReLU: 3-1143                 [4, 8, 64, 64]            --
│    │    └─Conv2d: 3-1144               [4, 8, 64, 64]            (recursive)
│    │    └─BatchNorm2d: 3-1145          [4, 8, 64, 64]            (recursive)
│    │    └─ReLU: 3-1146                 [4, 8, 64, 64]            --
│    │    └─Conv2d: 3-1147               [4, 32, 64, 64]           (recursive)
│    │    └─BatchNorm2d: 3-1148          [4, 32, 64, 64]           (recursive)
│    │    └─Sequential: 3-1149           [4, 32, 64, 64]           (recursive)
│    │    └─ReLU: 3-1150                 [4, 32, 64, 64]           --
│    └─AdaptiveAvgPool2d: 2-804          [4, 32, 2, 2]             --
│    └─Flatten: 2-805                    [4, 128]                  --
├─CNNModel: 1-116                        [4, 128]                  (recursive)
│    └─Conv2d: 2-806                     [4, 16, 128, 128]         (recursive)
│    └─BatchNorm2d: 2-807                [4, 16, 128, 128]         (recursive)
│    └─ReLU: 2-808                       [4, 16, 128, 128]         --
│    └─MaxPool2d: 2-809                  [4, 16, 64, 64]           --
│    └─Bottleneck: 2-810                 [4, 32, 64, 64]           (recursive)
│    │    └─Conv2d: 3-1151               [4, 8, 64, 64]            (recursive)
│    │    └─BatchNorm2d: 3-1152          [4, 8, 64, 64]            (recursive)
│    │    └─ReLU: 3-1153                 [4, 8, 64, 64]            --
│    │    └─Conv2d: 3-1154               [4, 8, 64, 64]            (recursive)
│    │    └─BatchNorm2d: 3-1155          [4, 8, 64, 64]            (recursive)
│    │    └─ReLU: 3-1156                 [4, 8, 64, 64]            --
│    │    └─Conv2d: 3-1157               [4, 32, 64, 64]           (recursive)
│    │    └─BatchNorm2d: 3-1158          [4, 32, 64, 64]           (recursive)
│    │    └─Sequential: 3-1159           [4, 32, 64, 64]           (recursive)
│    │    └─ReLU: 3-1160                 [4, 32, 64, 64]           --
│    └─AdaptiveAvgPool2d: 2-811          [4, 32, 2, 2]             --
│    └─Flatten: 2-812                    [4, 128]                  --
├─CNNModel: 1-117                        [4, 128]                  (recursive)
│    └─Conv2d: 2-813                     [4, 16, 128, 128]         (recursive)
│    └─BatchNorm2d: 2-814                [4, 16, 128, 128]         (recursive)
│    └─ReLU: 2-815                       [4, 16, 128, 128]         --
│    └─MaxPool2d: 2-816                  [4, 16, 64, 64]           --
│    └─Bottleneck: 2-817                 [4, 32, 64, 64]           (recursive)
│    │    └─Conv2d: 3-1161               [4, 8, 64, 64]            (recursive)
│    │    └─BatchNorm2d: 3-1162          [4, 8, 64, 64]            (recursive)
│    │    └─ReLU: 3-1163                 [4, 8, 64, 64]            --
│    │    └─Conv2d: 3-1164               [4, 8, 64, 64]            (recursive)
│    │    └─BatchNorm2d: 3-1165          [4, 8, 64, 64]            (recursive)
│    │    └─ReLU: 3-1166                 [4, 8, 64, 64]            --
│    │    └─Conv2d: 3-1167               [4, 32, 64, 64]           (recursive)
│    │    └─BatchNorm2d: 3-1168          [4, 32, 64, 64]           (recursive)
│    │    └─Sequential: 3-1169           [4, 32, 64, 64]           (recursive)
│    │    └─ReLU: 3-1170                 [4, 32, 64, 64]           --
│    └─AdaptiveAvgPool2d: 2-818          [4, 32, 2, 2]             --
│    └─Flatten: 2-819                    [4, 128]                  --
├─CNNModel: 1-118                        [4, 128]                  (recursive)
│    └─Conv2d: 2-820                     [4, 16, 128, 128]         (recursive)
│    └─BatchNorm2d: 2-821                [4, 16, 128, 128]         (recursive)
│    └─ReLU: 2-822                       [4, 16, 128, 128]         --
│    └─MaxPool2d: 2-823                  [4, 16, 64, 64]           --
│    └─Bottleneck: 2-824                 [4, 32, 64, 64]           (recursive)
│    │    └─Conv2d: 3-1171               [4, 8, 64, 64]            (recursive)
│    │    └─BatchNorm2d: 3-1172          [4, 8, 64, 64]            (recursive)
│    │    └─ReLU: 3-1173                 [4, 8, 64, 64]            --
│    │    └─Conv2d: 3-1174               [4, 8, 64, 64]            (recursive)
│    │    └─BatchNorm2d: 3-1175          [4, 8, 64, 64]            (recursive)
│    │    └─ReLU: 3-1176                 [4, 8, 64, 64]            --
│    │    └─Conv2d: 3-1177               [4, 32, 64, 64]           (recursive)
│    │    └─BatchNorm2d: 3-1178          [4, 32, 64, 64]           (recursive)
│    │    └─Sequential: 3-1179           [4, 32, 64, 64]           (recursive)
│    │    └─ReLU: 3-1180                 [4, 32, 64, 64]           --
│    └─AdaptiveAvgPool2d: 2-825          [4, 32, 2, 2]             --
│    └─Flatten: 2-826                    [4, 128]                  --
├─CNNModel: 1-119                        [4, 128]                  (recursive)
│    └─Conv2d: 2-827                     [4, 16, 128, 128]         (recursive)
│    └─BatchNorm2d: 2-828                [4, 16, 128, 128]         (recursive)
│    └─ReLU: 2-829                       [4, 16, 128, 128]         --
│    └─MaxPool2d: 2-830                  [4, 16, 64, 64]           --
│    └─Bottleneck: 2-831                 [4, 32, 64, 64]           (recursive)
│    │    └─Conv2d: 3-1181               [4, 8, 64, 64]            (recursive)
│    │    └─BatchNorm2d: 3-1182          [4, 8, 64, 64]            (recursive)
│    │    └─ReLU: 3-1183                 [4, 8, 64, 64]            --
│    │    └─Conv2d: 3-1184               [4, 8, 64, 64]            (recursive)
│    │    └─BatchNorm2d: 3-1185          [4, 8, 64, 64]            (recursive)
│    │    └─ReLU: 3-1186                 [4, 8, 64, 64]            --
│    │    └─Conv2d: 3-1187               [4, 32, 64, 64]           (recursive)
│    │    └─BatchNorm2d: 3-1188          [4, 32, 64, 64]           (recursive)
│    │    └─Sequential: 3-1189           [4, 32, 64, 64]           (recursive)
│    │    └─ReLU: 3-1190                 [4, 32, 64, 64]           --
│    └─AdaptiveAvgPool2d: 2-832          [4, 32, 2, 2]             --
│    └─Flatten: 2-833                    [4, 128]                  --
├─CNNModel: 1-120                        [4, 128]                  (recursive)
│    └─Conv2d: 2-834                     [4, 16, 128, 128]         (recursive)
│    └─BatchNorm2d: 2-835                [4, 16, 128, 128]         (recursive)
│    └─ReLU: 2-836                       [4, 16, 128, 128]         --
│    └─MaxPool2d: 2-837                  [4, 16, 64, 64]           --
│    └─Bottleneck: 2-838                 [4, 32, 64, 64]           (recursive)
│    │    └─Conv2d: 3-1191               [4, 8, 64, 64]            (recursive)
│    │    └─BatchNorm2d: 3-1192          [4, 8, 64, 64]            (recursive)
│    │    └─ReLU: 3-1193                 [4, 8, 64, 64]            --
│    │    └─Conv2d: 3-1194               [4, 8, 64, 64]            (recursive)
│    │    └─BatchNorm2d: 3-1195          [4, 8, 64, 64]            (recursive)
│    │    └─ReLU: 3-1196                 [4, 8, 64, 64]            --
│    │    └─Conv2d: 3-1197               [4, 32, 64, 64]           (recursive)
│    │    └─BatchNorm2d: 3-1198          [4, 32, 64, 64]           (recursive)
│    │    └─Sequential: 3-1199           [4, 32, 64, 64]           (recursive)
│    │    └─ReLU: 3-1200                 [4, 32, 64, 64]           --
│    └─AdaptiveAvgPool2d: 2-839          [4, 32, 2, 2]             --
│    └─Flatten: 2-840                    [4, 128]                  --
├─CNNModel: 1-121                        [4, 128]                  (recursive)
│    └─Conv2d: 2-841                     [4, 16, 128, 128]         (recursive)
│    └─BatchNorm2d: 2-842                [4, 16, 128, 128]         (recursive)
│    └─ReLU: 2-843                       [4, 16, 128, 128]         --
│    └─MaxPool2d: 2-844                  [4, 16, 64, 64]           --
│    └─Bottleneck: 2-845                 [4, 32, 64, 64]           (recursive)
│    │    └─Conv2d: 3-1201               [4, 8, 64, 64]            (recursive)
│    │    └─BatchNorm2d: 3-1202          [4, 8, 64, 64]            (recursive)
│    │    └─ReLU: 3-1203                 [4, 8, 64, 64]            --
│    │    └─Conv2d: 3-1204               [4, 8, 64, 64]            (recursive)
│    │    └─BatchNorm2d: 3-1205          [4, 8, 64, 64]            (recursive)
│    │    └─ReLU: 3-1206                 [4, 8, 64, 64]            --
│    │    └─Conv2d: 3-1207               [4, 32, 64, 64]           (recursive)
│    │    └─BatchNorm2d: 3-1208          [4, 32, 64, 64]           (recursive)
│    │    └─Sequential: 3-1209           [4, 32, 64, 64]           (recursive)
│    │    └─ReLU: 3-1210                 [4, 32, 64, 64]           --
│    └─AdaptiveAvgPool2d: 2-846          [4, 32, 2, 2]             --
│    └─Flatten: 2-847                    [4, 128]                  --
├─CNNModel: 1-122                        [4, 128]                  (recursive)
│    └─Conv2d: 2-848                     [4, 16, 128, 128]         (recursive)
│    └─BatchNorm2d: 2-849                [4, 16, 128, 128]         (recursive)
│    └─ReLU: 2-850                       [4, 16, 128, 128]         --
│    └─MaxPool2d: 2-851                  [4, 16, 64, 64]           --
│    └─Bottleneck: 2-852                 [4, 32, 64, 64]           (recursive)
│    │    └─Conv2d: 3-1211               [4, 8, 64, 64]            (recursive)
│    │    └─BatchNorm2d: 3-1212          [4, 8, 64, 64]            (recursive)
│    │    └─ReLU: 3-1213                 [4, 8, 64, 64]            --
│    │    └─Conv2d: 3-1214               [4, 8, 64, 64]            (recursive)
│    │    └─BatchNorm2d: 3-1215          [4, 8, 64, 64]            (recursive)
│    │    └─ReLU: 3-1216                 [4, 8, 64, 64]            --
│    │    └─Conv2d: 3-1217               [4, 32, 64, 64]           (recursive)
│    │    └─BatchNorm2d: 3-1218          [4, 32, 64, 64]           (recursive)
│    │    └─Sequential: 3-1219           [4, 32, 64, 64]           (recursive)
│    │    └─ReLU: 3-1220                 [4, 32, 64, 64]           --
│    └─AdaptiveAvgPool2d: 2-853          [4, 32, 2, 2]             --
│    └─Flatten: 2-854                    [4, 128]                  --
├─CNNModel: 1-123                        [4, 128]                  (recursive)
│    └─Conv2d: 2-855                     [4, 16, 128, 128]         (recursive)
│    └─BatchNorm2d: 2-856                [4, 16, 128, 128]         (recursive)
│    └─ReLU: 2-857                       [4, 16, 128, 128]         --
│    └─MaxPool2d: 2-858                  [4, 16, 64, 64]           --
│    └─Bottleneck: 2-859                 [4, 32, 64, 64]           (recursive)
│    │    └─Conv2d: 3-1221               [4, 8, 64, 64]            (recursive)
│    │    └─BatchNorm2d: 3-1222          [4, 8, 64, 64]            (recursive)
│    │    └─ReLU: 3-1223                 [4, 8, 64, 64]            --
│    │    └─Conv2d: 3-1224               [4, 8, 64, 64]            (recursive)
│    │    └─BatchNorm2d: 3-1225          [4, 8, 64, 64]            (recursive)
│    │    └─ReLU: 3-1226                 [4, 8, 64, 64]            --
│    │    └─Conv2d: 3-1227               [4, 32, 64, 64]           (recursive)
│    │    └─BatchNorm2d: 3-1228          [4, 32, 64, 64]           (recursive)
│    │    └─Sequential: 3-1229           [4, 32, 64, 64]           (recursive)
│    │    └─ReLU: 3-1230                 [4, 32, 64, 64]           --
│    └─AdaptiveAvgPool2d: 2-860          [4, 32, 2, 2]             --
│    └─Flatten: 2-861                    [4, 128]                  --
├─CNNModel: 1-124                        [4, 128]                  (recursive)
│    └─Conv2d: 2-862                     [4, 16, 128, 128]         (recursive)
│    └─BatchNorm2d: 2-863                [4, 16, 128, 128]         (recursive)
│    └─ReLU: 2-864                       [4, 16, 128, 128]         --
│    └─MaxPool2d: 2-865                  [4, 16, 64, 64]           --
│    └─Bottleneck: 2-866                 [4, 32, 64, 64]           (recursive)
│    │    └─Conv2d: 3-1231               [4, 8, 64, 64]            (recursive)
│    │    └─BatchNorm2d: 3-1232          [4, 8, 64, 64]            (recursive)
│    │    └─ReLU: 3-1233                 [4, 8, 64, 64]            --
│    │    └─Conv2d: 3-1234               [4, 8, 64, 64]            (recursive)
│    │    └─BatchNorm2d: 3-1235          [4, 8, 64, 64]            (recursive)
│    │    └─ReLU: 3-1236                 [4, 8, 64, 64]            --
│    │    └─Conv2d: 3-1237               [4, 32, 64, 64]           (recursive)
│    │    └─BatchNorm2d: 3-1238          [4, 32, 64, 64]           (recursive)
│    │    └─Sequential: 3-1239           [4, 32, 64, 64]           (recursive)
│    │    └─ReLU: 3-1240                 [4, 32, 64, 64]           --
│    └─AdaptiveAvgPool2d: 2-867          [4, 32, 2, 2]             --
│    └─Flatten: 2-868                    [4, 128]                  --
├─CNNModel: 1-125                        [4, 128]                  (recursive)
│    └─Conv2d: 2-869                     [4, 16, 128, 128]         (recursive)
│    └─BatchNorm2d: 2-870                [4, 16, 128, 128]         (recursive)
│    └─ReLU: 2-871                       [4, 16, 128, 128]         --
│    └─MaxPool2d: 2-872                  [4, 16, 64, 64]           --
│    └─Bottleneck: 2-873                 [4, 32, 64, 64]           (recursive)
│    │    └─Conv2d: 3-1241               [4, 8, 64, 64]            (recursive)
│    │    └─BatchNorm2d: 3-1242          [4, 8, 64, 64]            (recursive)
│    │    └─ReLU: 3-1243                 [4, 8, 64, 64]            --
│    │    └─Conv2d: 3-1244               [4, 8, 64, 64]            (recursive)
│    │    └─BatchNorm2d: 3-1245          [4, 8, 64, 64]            (recursive)
│    │    └─ReLU: 3-1246                 [4, 8, 64, 64]            --
│    │    └─Conv2d: 3-1247               [4, 32, 64, 64]           (recursive)
│    │    └─BatchNorm2d: 3-1248          [4, 32, 64, 64]           (recursive)
│    │    └─Sequential: 3-1249           [4, 32, 64, 64]           (recursive)
│    │    └─ReLU: 3-1250                 [4, 32, 64, 64]           --
│    └─AdaptiveAvgPool2d: 2-874          [4, 32, 2, 2]             --
│    └─Flatten: 2-875                    [4, 128]                  --
├─CNNModel: 1-126                        [4, 128]                  (recursive)
│    └─Conv2d: 2-876                     [4, 16, 128, 128]         (recursive)
│    └─BatchNorm2d: 2-877                [4, 16, 128, 128]         (recursive)
│    └─ReLU: 2-878                       [4, 16, 128, 128]         --
│    └─MaxPool2d: 2-879                  [4, 16, 64, 64]           --
│    └─Bottleneck: 2-880                 [4, 32, 64, 64]           (recursive)
│    │    └─Conv2d: 3-1251               [4, 8, 64, 64]            (recursive)
│    │    └─BatchNorm2d: 3-1252          [4, 8, 64, 64]            (recursive)
│    │    └─ReLU: 3-1253                 [4, 8, 64, 64]            --
│    │    └─Conv2d: 3-1254               [4, 8, 64, 64]            (recursive)
│    │    └─BatchNorm2d: 3-1255          [4, 8, 64, 64]            (recursive)
│    │    └─ReLU: 3-1256                 [4, 8, 64, 64]            --
│    │    └─Conv2d: 3-1257               [4, 32, 64, 64]           (recursive)
│    │    └─BatchNorm2d: 3-1258          [4, 32, 64, 64]           (recursive)
│    │    └─Sequential: 3-1259           [4, 32, 64, 64]           (recursive)
│    │    └─ReLU: 3-1260                 [4, 32, 64, 64]           --
│    └─AdaptiveAvgPool2d: 2-881          [4, 32, 2, 2]             --
│    └─Flatten: 2-882                    [4, 128]                  --
├─CNNModel: 1-127                        [4, 128]                  (recursive)
│    └─Conv2d: 2-883                     [4, 16, 128, 128]         (recursive)
│    └─BatchNorm2d: 2-884                [4, 16, 128, 128]         (recursive)
│    └─ReLU: 2-885                       [4, 16, 128, 128]         --
│    └─MaxPool2d: 2-886                  [4, 16, 64, 64]           --
│    └─Bottleneck: 2-887                 [4, 32, 64, 64]           (recursive)
│    │    └─Conv2d: 3-1261               [4, 8, 64, 64]            (recursive)
│    │    └─BatchNorm2d: 3-1262          [4, 8, 64, 64]            (recursive)
│    │    └─ReLU: 3-1263                 [4, 8, 64, 64]            --
│    │    └─Conv2d: 3-1264               [4, 8, 64, 64]            (recursive)
│    │    └─BatchNorm2d: 3-1265          [4, 8, 64, 64]            (recursive)
│    │    └─ReLU: 3-1266                 [4, 8, 64, 64]            --
│    │    └─Conv2d: 3-1267               [4, 32, 64, 64]           (recursive)
│    │    └─BatchNorm2d: 3-1268          [4, 32, 64, 64]           (recursive)
│    │    └─Sequential: 3-1269           [4, 32, 64, 64]           (recursive)
│    │    └─ReLU: 3-1270                 [4, 32, 64, 64]           --
│    └─AdaptiveAvgPool2d: 2-888          [4, 32, 2, 2]             --
│    └─Flatten: 2-889                    [4, 128]                  --
├─CNNModel: 1-128                        [4, 128]                  (recursive)
│    └─Conv2d: 2-890                     [4, 16, 128, 128]         (recursive)
│    └─BatchNorm2d: 2-891                [4, 16, 128, 128]         (recursive)
│    └─ReLU: 2-892                       [4, 16, 128, 128]         --
│    └─MaxPool2d: 2-893                  [4, 16, 64, 64]           --
│    └─Bottleneck: 2-894                 [4, 32, 64, 64]           (recursive)
│    │    └─Conv2d: 3-1271               [4, 8, 64, 64]            (recursive)
│    │    └─BatchNorm2d: 3-1272          [4, 8, 64, 64]            (recursive)
│    │    └─ReLU: 3-1273                 [4, 8, 64, 64]            --
│    │    └─Conv2d: 3-1274               [4, 8, 64, 64]            (recursive)
│    │    └─BatchNorm2d: 3-1275          [4, 8, 64, 64]            (recursive)
│    │    └─ReLU: 3-1276                 [4, 8, 64, 64]            --
│    │    └─Conv2d: 3-1277               [4, 32, 64, 64]           (recursive)
│    │    └─BatchNorm2d: 3-1278          [4, 32, 64, 64]           (recursive)
│    │    └─Sequential: 3-1279           [4, 32, 64, 64]           (recursive)
│    │    └─ReLU: 3-1280                 [4, 32, 64, 64]           --
│    └─AdaptiveAvgPool2d: 2-895          [4, 32, 2, 2]             --
│    └─Flatten: 2-896                    [4, 128]                  --
├─Linear: 1-129                          [128, 4, 128]             11,648
├─BatchNorm1d: 1-130                     [128, 4, 128]             8
├─ReLU: 1-131                            [128, 4, 128]             --
├─InformerEncoderLayer: 1-132            [128, 4, 128]             --
│    └─AttentionLayer: 2-897             [128, 4, 128]             --
│    │    └─Linear: 3-1281               [128, 4, 128]             16,512
│    │    └─Linear: 3-1282               [128, 8, 128]             16,512
│    │    └─Linear: 3-1283               [128, 8, 128]             16,512
│    │    └─ProbAttention: 3-1284        [128, 4, 4, 32]           --
│    │    └─Linear: 3-1285               [128, 4, 128]             16,512
│    └─Dropout: 2-898                    [128, 4, 128]             --
│    └─LayerNorm: 2-899                  [128, 4, 128]             256
│    └─Conv1d: 2-900                     [128, 16, 4]              2,064
│    └─Dropout: 2-901                    [128, 16, 4]              --
│    └─Conv1d: 2-902                     [128, 128, 4]             2,176
│    └─Dropout: 2-903                    [128, 4, 128]             --
│    └─LayerNorm: 2-904                  [128, 4, 128]             256
├─Linear: 1-133                          [128, 128]                65,664
├─InformerEncoderLayer: 1-134            [128, 4, 128]             --
│    └─AttentionLayer: 2-905             [128, 4, 128]             --
│    │    └─Linear: 3-1286               [128, 4, 128]             16,512
│    │    └─Linear: 3-1287               [128, 8, 128]             16,512
│    │    └─Linear: 3-1288               [128, 8, 128]             16,512
│    │    └─ProbAttention: 3-1289        [128, 4, 4, 32]           --
│    │    └─Linear: 3-1290               [128, 4, 128]             16,512
│    └─Dropout: 2-906                    [128, 4, 128]             --
│    └─LayerNorm: 2-907                  [128, 4, 128]             256
│    └─Conv1d: 2-908                     [128, 16, 4]              2,064
│    └─Dropout: 2-909                    [128, 16, 4]              --
│    └─Conv1d: 2-910                     [128, 128, 4]             2,176
│    └─Dropout: 2-911                    [128, 4, 128]             --
│    └─LayerNorm: 2-912                  [128, 4, 128]             256
├─Linear: 1-135                          [128, 128]                65,664
├─Linear: 1-136                          [128, 4]                  1,028
├─Softmax: 1-137                         [128, 4]                  --
==========================================================================================
Total params: 288,060
Trainable params: 288,060
Non-trainable params: 0
Total mult-adds (G): 9.70
==========================================================================================
Input size (MB): 134.40
Forward/backward pass size (MB): 48.63
Params size (MB): 1.15
Estimated Total Size (MB): 184.19
…
